name: "multiori-ani-probing"
input: "data"
input_shape {
  dim: 1
  dim: 20
  dim: 30
  dim: 30
  dim: 30
}
layer {
  name: "slice_data"
  type: "Slice"
  bottom: "data"
  top: "data_1"
  top: "data_2"
  top: "data_3"
  top: "data_4"
  top: "data_5"
  top: "data_6"
  top: "data_7"
  top: "data_8"
  top: "data_9"
  top: "data_10"
  top: "data_11"
  top: "data_12"
  top: "data_13"
  top: "data_14"
  top: "data_15"
  top: "data_16"
  top: "data_17"
  top: "data_18"
  top: "data_19"
  top: "data_20"
  slice_param {
    slice_dim: 1
    slice_point: 1
    slice_point: 2
    slice_point: 3
    slice_point: 4
    slice_point: 5
    slice_point: 6
    slice_point: 7
    slice_point: 8
    slice_point: 9
    slice_point: 10
    slice_point: 11
    slice_point: 12
    slice_point: 13
    slice_point: 14
    slice_point: 15
    slice_point: 16
    slice_point: 17
    slice_point: 18
    slice_point: 19
  }
}

# -> conv-out: 128 x 5 x 1 x 30 x 30
layer {
  name: "aniprobing-1"
  type: "Convolution"
  bottom: "data_1"
  top: "aniprobing-1"
  param {
    name: "aniprobing-1_w"
    lr_mult: 0
  }
  param {
    name: "aniprobing-1_b"
    lr_mult: 0
  }
  convolution_param {
    num_output: 5
    axis: 1
    kernel_size: 30
    kernel_size: 1
    kernel_size: 1
    stride: 30
    stride: 1
    stride: 1
    weight_filler {
        type: "gaussian"
        std: 0.25
    }
    bias_filler {
        type: "constant"
        value: 0
    }
  }
}

layer {
  name: "relu-1"
  type: "ReLU"
  bottom: "aniprobing-1"
  top: "aniprobing-1"
}

# -> conv-out: 128 x 1 x 5 x 30 x 30
layer {
  name: "reshape"
  type: "Reshape"
  bottom: "aniprobing-1"
  top: "aniprobing-1-rs"
  reshape_param {
    shape {
      dim: 0
      dim: 1
      dim: 5
      dim: 30
      dim: 30
    }
  }
}

# -> conv-out: 128 x 5 x 1 x 30 x 30
layer {
  name: "aniprobing-2"
  type: "Convolution"
  bottom: "aniprobing-1-rs"
  top: "aniprobing-2"
  param {
    name: "aniprobing-2_w"
    lr_mult: 0
  }
  param {
    name: "aniprobing-2_b"
    lr_mult: 0
  }
  convolution_param {
    num_output: 5
    axis: 1
    kernel_size: 5
    kernel_size: 1
    kernel_size: 1
    stride: 5
    stride: 1
    stride: 1
    weight_filler {
        type: "gaussian"
        std: 0.45
    }
    bias_filler {
        type: "constant"
        value: 0
    }
  }
}
layer {
  name: "relu-2"
  type: "ReLU"
  bottom: "aniprobing-2"
  top: "aniprobing-2"
}
layer {
  name: "reshape"
  type: "Reshape"
  bottom: "aniprobing-2"
  top: "aniprobing-2-rs"
  reshape_param {
    shape {
      dim: 0
      dim: 1
      dim: 5
      dim: 30
      dim: 30
    }
  }
}

# -> conv-out: 128 x 1 x 1 x 30 x 30
layer {
  name: "aniprobing-3"
  type: "Convolution"
  bottom: "aniprobing-2-rs"
  top: "aniprobing-3"
  param {
    name: "aniprobing-3_w"
    lr_mult: 0
  }
  param {
    name: "aniprobing-3_b"
    lr_mult: 0
  }
  convolution_param {
    num_output: 1
    axis: 1
    kernel_size: 5
    kernel_size: 1
    kernel_size: 1
    stride: 5
    stride: 1
    stride: 1
    weight_filler {
        type: "gaussian"
        std: 0.63
    }
    bias_filler {
        type: "constant"
        value: 0
    }
  }
}

layer {
  name: "relu-3"
  type: "ReLU"
  bottom: "aniprobing-3"
  top: "aniprobing-3"
}

layer {
  name: "reshape"
  type: "Reshape"
  bottom: "aniprobing-3"
  top: "aniprobing-3-rs"
  reshape_param {
    shape {
      dim: 0
      dim: 1
      dim: 30
      dim: 30
    }
  }
}
####################
layer {
  name: "conv1"
  type: "Convolution"
  bottom: "aniprobing-3-rs"
  top: "conv1"
  param {
    name: "conv1_w"
    lr_mult: 0
  }
  param {
    name: "conv1_b"
    lr_mult: 0
  }
  convolution_param {
    num_output: 128
    pad: 3
    kernel_size: 5
    weight_filler {
      type: "gaussian"
      std: 0.28
    }
    bias_filler {
      type: "constant"
    }
  }
}
layer {
  name: "relu1"
  type: "ReLU"
  bottom: "conv1"
  top: "conv1"
}
layer {
  name: "cccp11"
  type: "Convolution"
;  bottom: "conv1"
  top: "cccp11"
  param {
    name: "cccp11_w"
    lr_mult: 0
  }
  param {
    name: "cccp11_b"
    lr_mult: 0
  }
  convolution_param {
    num_output: 96
    kernel_size: 1
    group: 1
    weight_filler {
      type: "gaussian"
      std: 0.1
    }
    bias_filler {
      type: "constant"
      value: 0
    }
  }
}
layer {
  name: "relu_cccp11"
  type: "ReLU"
  bottom: "cccp11"
  top: "cccp11"
}
layer {
  name: "cccp12"
  type: "Convolution"
  bottom: "cccp11"
  top: "cccp12"
  param {
    name: "cccp12_w"
    lr_mult: 0
  }
  param {
    name: "cccp12_b"
    lr_mult: 0
  }
  convolution_param {
    num_output: 96
    kernel_size: 1
    group: 1
    weight_filler {
      type: "gaussian"
      std: 0.11
    }
    bias_filler {
      type: "constant"
      value: 0
    }
  }
}
layer {
  name: "relu_cccp12"
  type: "ReLU"
  bottom: "cccp12"
  top: "cccp12"
}
layer {
  name: "pool1"
  type: "Pooling"
  bottom: "cccp12"
  top: "pool1"
  pooling_param {
    pool: MAX
    kernel_size: 3
    stride: 2
  }
}
layer {
  name: "drop1"
  type: "Dropout"
  bottom: "pool1"
  top: "pool1"
  dropout_param {
    dropout_ratio: 0.5
  }
}
layer {
  name: "conv2"
  type: "Convolution"
  bottom: "pool1"
  top: "conv2"
  param {
    name: "conv2_w"
    lr_mult: 0
  }
  param {
    name: "conv2_b"
    lr_mult: 0
  }
  convolution_param {
    num_output: 128
    pad: 2
    kernel_size: 5
    weight_filler {
      type: "gaussian"
      std: 0.03
    }
    bias_filler {
      type: "constant"
    }
  }
}
layer {
  name: "relu2"
  type: "ReLU"
  bottom: "conv2"
  top: "conv2"
}
layer {
  name: "cccp21"
  type: "Convolution"
  bottom: "conv2"
  top: "cccp21"
  param {
    name: "cccp21_w"
    lr_mult: 0
  }
  param {
    name: "cccp21_b"
    lr_mult: 0
  }
  convolution_param {
    num_output: 96
    kernel_size: 1
    group: 1
    weight_filler {
      type: "gaussian"
      std: 0.1
    }
    bias_filler {
      type: "constant"
      value: 0
    }
  }
}
layer {
  name: "relu_cccp21"
  type: "ReLU"
  bottom: "cccp21"
  top: "cccp21"
}
layer {
  name: "cccp22"
  type: "Convolution"
  bottom: "cccp21"
  top: "cccp22"
  param {
    name: "cccp22_w"
    lr_mult: 0
  }
  param {
    name: "cccp22_b"
    lr_mult: 0
  }
  convolution_param {
    num_output: 96
    kernel_size: 1
    group: 1
    weight_filler {
      type: "gaussian"
      std: 0.1
    }
    bias_filler {
      type: "constant"
      value: 0
    }
  }
}
layer {
  name: "relu_cccp22"
  type: "ReLU"
  bottom: "cccp22"
  top: "cccp22"
}
layer {
  name: "pool2"
  type: "Pooling"
  bottom: "cccp22"
  top: "pool2"
  pooling_param {
    pool: AVE
    kernel_size: 3
    stride: 2
  }
}
layer {
  name: "drop2"
  type: "Dropout"
  bottom: "pool2"
  top: "pool2"
  dropout_param {
    dropout_ratio: 0.5
  }
}
layer {
  name: "conv3"
  type: "Convolution"
  bottom: "pool2"
  top: "conv3"
  param {
    name: "conv3_w"
    lr_mult: 0
  }
  param {
    name: "conv3_b"
    lr_mult: 0
  }
  convolution_param {
    num_output: 128
    pad: 1
    kernel_size: 3
    weight_filler {
      type: "gaussian"
      std: 0.03
    }
    bias_filler {
      type: "constant"
    }
  }
}
layer {
  name: "relu3"
  type: "ReLU"
  bottom: "conv3"
  top: "conv3"
}
layer {
  name: "cccp31"
  type: "Convolution"
  bottom: "conv3"
  top: "cccp31"
  param {
    name: "cccp31_w"
    lr_mult: 0
  }
  param {
    name: "cccp31_b"
    lr_mult: 0
  }
  convolution_param {
    num_output: 128
    kernel_size: 1
    group: 1
    weight_filler {
      type: "gaussian"
      std: 0.1
    }
    bias_filler {
      type: "constant"
      value: 0
    }
  }
}
# -> conv-out: 128 x 5 x 1 x 30 x 30
layer {
  name: "aniprobing-1_2"
  type: "Convolution"
  bottom: "data_2"
  top: "aniprobing-1_2"
  param {
    name: "aniprobing-1_w"
    lr_mult: 0
  }
  param {
    name: "aniprobing-1_b"
    lr_mult: 0
  }
  convolution_param {
    num_output: 5
    axis: 1
    kernel_size: 30
    kernel_size: 1
    kernel_size: 1
    stride: 30
    stride: 1
    stride: 1
    weight_filler {
        type: "gaussian"
        std: 0.25
    }
    bias_filler {
        type: "constant"
        value: 0
    }
  }
}

layer {
  name: "relu-1_2"
  type: "ReLU"
  bottom: "aniprobing-1_2"
  top: "aniprobing-1_2"
}

# -> conv-out: 128 x 1 x 5 x 30 x 30
layer {
  name: "reshape"
  type: "Reshape"
  bottom: "aniprobing-1_2"
  top: "aniprobing-1-rs_2"
  reshape_param {
    shape {
      dim: 0
      dim: 1
      dim: 5
      dim: 30
      dim: 30
    }
  }
}

# -> conv-out: 128 x 5 x 1 x 30 x 30
layer {
  name: "aniprobing-2_2"
  type: "Convolution"
  bottom: "aniprobing-1-rs_2"
  top: "aniprobing-2_2"
  param {
    name: "aniprobing-2_w"
    lr_mult: 0
  }
  param {
    name: "aniprobing-2_b"
    lr_mult: 0
  }
  convolution_param {
    num_output: 5
    axis: 1
    kernel_size: 5
    kernel_size: 1
    kernel_size: 1
    stride: 5
    stride: 1
    stride: 1
    weight_filler {
        type: "gaussian"
        std: 0.45
    }
    bias_filler {
        type: "constant"
        value: 0
    }
  }
}
layer {
  name: "relu-2_2"
  type: "ReLU"
  bottom: "aniprobing-2_2"
  top: "aniprobing-2_2"
}
layer {
  name: "reshape"
  type: "Reshape"
  bottom: "aniprobing-2_2"
  top: "aniprobing-2-rs_2"
  reshape_param {
    shape {
      dim: 0
      dim: 1
      dim: 5
      dim: 30
      dim: 30
    }
  }
}

# -> conv-out: 128 x 1 x 1 x 30 x 30
layer {
  name: "aniprobing-3_2"
  type: "Convolution"
  bottom: "aniprobing-2-rs_2"
  top: "aniprobing-3_2"
  param {
    name: "aniprobing-3_w"
    lr_mult: 0
  }
  param {
    name: "aniprobing-3_b"
    lr_mult: 0
  }
  convolution_param {
    num_output: 1
    axis: 1
    kernel_size: 5
    kernel_size: 1
    kernel_size: 1
    stride: 5
    stride: 1
    stride: 1
    weight_filler {
        type: "gaussian"
        std: 0.63
    }
    bias_filler {
        type: "constant"
        value: 0
    }
  }
}

layer {
  name: "relu-3_2"
  type: "ReLU"
  bottom: "aniprobing-3_2"
  top: "aniprobing-3_2"
}

layer {
  name: "reshape"
  type: "Reshape"
  bottom: "aniprobing-3_2"
  top: "aniprobing-3-rs_2"
  reshape_param {
    shape {
      dim: 0
      dim: 1
      dim: 30
      dim: 30
    }
  }
}
####################
layer {
  name: "conv1_2"
  type: "Convolution"
  bottom: "aniprobing-3-rs_2"
  top: "conv1_2"
  param {
    name: "conv1_w"
    lr_mult: 0
  }
  param {
    name: "conv1_b"
    lr_mult: 0
  }
  convolution_param {
    num_output: 128
    pad: 3
    kernel_size: 5
    weight_filler {
      type: "gaussian"
      std: 0.28
    }
    bias_filler {
      type: "constant"
    }
  }
}
layer {
  name: "relu1_2"
  type: "ReLU"
  bottom: "conv1_2"
  top: "conv1_2"
}
layer {
  name: "cccp11_2"
  type: "Convolution"
;  bottom: "conv1_2"
  top: "cccp11_2"
  param {
    name: "cccp11_w"
    lr_mult: 0
  }
  param {
    name: "cccp11_b"
    lr_mult: 0
  }
  convolution_param {
    num_output: 96
    kernel_size: 1
    group: 1
    weight_filler {
      type: "gaussian"
      std: 0.1
    }
    bias_filler {
      type: "constant"
      value: 0
    }
  }
}
layer {
  name: "relu_cccp11_2"
  type: "ReLU"
  bottom: "cccp11_2"
  top: "cccp11_2"
}
layer {
  name: "cccp12_2"
  type: "Convolution"
  bottom: "cccp11_2"
  top: "cccp12_2"
  param {
    name: "cccp12_w"
    lr_mult: 0
  }
  param {
    name: "cccp12_b"
    lr_mult: 0
  }
  convolution_param {
    num_output: 96
    kernel_size: 1
    group: 1
    weight_filler {
      type: "gaussian"
      std: 0.11
    }
    bias_filler {
      type: "constant"
      value: 0
    }
  }
}
layer {
  name: "relu_cccp12_2"
  type: "ReLU"
  bottom: "cccp12_2"
  top: "cccp12_2"
}
layer {
  name: "pool1_2"
  type: "Pooling"
  bottom: "cccp12_2"
  top: "pool1_2"
  pooling_param {
    pool: MAX
    kernel_size: 3
    stride: 2
  }
}
layer {
  name: "drop1_2"
  type: "Dropout"
  bottom: "pool1_2"
  top: "pool1_2"
  dropout_param {
    dropout_ratio: 0.5
  }
}
layer {
  name: "conv2_2"
  type: "Convolution"
  bottom: "pool1_2"
  top: "conv2_2"
  param {
    name: "conv2_w"
    lr_mult: 0
  }
  param {
    name: "conv2_b"
    lr_mult: 0
  }
  convolution_param {
    num_output: 128
    pad: 2
    kernel_size: 5
    weight_filler {
      type: "gaussian"
      std: 0.03
    }
    bias_filler {
      type: "constant"
    }
  }
}
layer {
  name: "relu2_2"
  type: "ReLU"
  bottom: "conv2_2"
  top: "conv2_2"
}
layer {
  name: "cccp21_2"
  type: "Convolution"
  bottom: "conv2_2"
  top: "cccp21_2"
  param {
    name: "cccp21_w"
    lr_mult: 0
  }
  param {
    name: "cccp21_b"
    lr_mult: 0
  }
  convolution_param {
    num_output: 96
    kernel_size: 1
    group: 1
    weight_filler {
      type: "gaussian"
      std: 0.1
    }
    bias_filler {
      type: "constant"
      value: 0
    }
  }
}
layer {
  name: "relu_cccp21_2"
  type: "ReLU"
  bottom: "cccp21_2"
  top: "cccp21_2"
}
layer {
  name: "cccp22_2"
  type: "Convolution"
  bottom: "cccp21_2"
  top: "cccp22_2"
  param {
    name: "cccp22_w"
    lr_mult: 0
  }
  param {
    name: "cccp22_b"
    lr_mult: 0
  }
  convolution_param {
    num_output: 96
    kernel_size: 1
    group: 1
    weight_filler {
      type: "gaussian"
      std: 0.1
    }
    bias_filler {
      type: "constant"
      value: 0
    }
  }
}
layer {
  name: "relu_cccp22_2"
  type: "ReLU"
  bottom: "cccp22_2"
  top: "cccp22_2"
}
layer {
  name: "pool2_2"
  type: "Pooling"
  bottom: "cccp22_2"
  top: "pool2_2"
  pooling_param {
    pool: AVE
    kernel_size: 3
    stride: 2
  }
}
layer {
  name: "drop2_2"
  type: "Dropout"
  bottom: "pool2_2"
  top: "pool2_2"
  dropout_param {
    dropout_ratio: 0.5
  }
}
layer {
  name: "conv3_2"
  type: "Convolution"
  bottom: "pool2_2"
  top: "conv3_2"
  param {
    name: "conv3_w"
    lr_mult: 0
  }
  param {
    name: "conv3_b"
    lr_mult: 0
  }
  convolution_param {
    num_output: 128
    pad: 1
    kernel_size: 3
    weight_filler {
      type: "gaussian"
      std: 0.03
    }
    bias_filler {
      type: "constant"
    }
  }
}
layer {
  name: "relu3_2"
  type: "ReLU"
  bottom: "conv3_2"
  top: "conv3_2"
}
layer {
  name: "cccp31_2"
  type: "Convolution"
  bottom: "conv3_2"
  top: "cccp31_2"
  param {
    name: "cccp31_w"
    lr_mult: 0
  }
  param {
    name: "cccp31_b"
    lr_mult: 0
  }
  convolution_param {
    num_output: 128
    kernel_size: 1
    group: 1
    weight_filler {
      type: "gaussian"
      std: 0.1
    }
    bias_filler {
      type: "constant"
      value: 0
    }
  }
}
# -> conv-out: 128 x 5 x 1 x 30 x 30
layer {
  name: "aniprobing-1_3"
  type: "Convolution"
  bottom: "data_3"
  top: "aniprobing-1_3"
  param {
    name: "aniprobing-1_w"
    lr_mult: 0
  }
  param {
    name: "aniprobing-1_b"
    lr_mult: 0
  }
  convolution_param {
    num_output: 5
    axis: 1
    kernel_size: 30
    kernel_size: 1
    kernel_size: 1
    stride: 30
    stride: 1
    stride: 1
    weight_filler {
        type: "gaussian"
        std: 0.25
    }
    bias_filler {
        type: "constant"
        value: 0
    }
  }
}

layer {
  name: "relu-1_3"
  type: "ReLU"
  bottom: "aniprobing-1_3"
  top: "aniprobing-1_3"
}

# -> conv-out: 128 x 1 x 5 x 30 x 30
layer {
  name: "reshape"
  type: "Reshape"
  bottom: "aniprobing-1_3"
  top: "aniprobing-1-rs_3"
  reshape_param {
    shape {
      dim: 0
      dim: 1
      dim: 5
      dim: 30
      dim: 30
    }
  }
}

# -> conv-out: 128 x 5 x 1 x 30 x 30
layer {
  name: "aniprobing-2_3"
  type: "Convolution"
  bottom: "aniprobing-1-rs_3"
  top: "aniprobing-2_3"
  param {
    name: "aniprobing-2_w"
    lr_mult: 0
  }
  param {
    name: "aniprobing-2_b"
    lr_mult: 0
  }
  convolution_param {
    num_output: 5
    axis: 1
    kernel_size: 5
    kernel_size: 1
    kernel_size: 1
    stride: 5
    stride: 1
    stride: 1
    weight_filler {
        type: "gaussian"
        std: 0.45
    }
    bias_filler {
        type: "constant"
        value: 0
    }
  }
}
layer {
  name: "relu-2_3"
  type: "ReLU"
  bottom: "aniprobing-2_3"
  top: "aniprobing-2_3"
}
layer {
  name: "reshape"
  type: "Reshape"
  bottom: "aniprobing-2_3"
  top: "aniprobing-2-rs_3"
  reshape_param {
    shape {
      dim: 0
      dim: 1
      dim: 5
      dim: 30
      dim: 30
    }
  }
}

# -> conv-out: 128 x 1 x 1 x 30 x 30
layer {
  name: "aniprobing-3_3"
  type: "Convolution"
  bottom: "aniprobing-2-rs_3"
  top: "aniprobing-3_3"
  param {
    name: "aniprobing-3_w"
    lr_mult: 0
  }
  param {
    name: "aniprobing-3_b"
    lr_mult: 0
  }
  convolution_param {
    num_output: 1
    axis: 1
    kernel_size: 5
    kernel_size: 1
    kernel_size: 1
    stride: 5
    stride: 1
    stride: 1
    weight_filler {
        type: "gaussian"
        std: 0.63
    }
    bias_filler {
        type: "constant"
        value: 0
    }
  }
}

layer {
  name: "relu-3_3"
  type: "ReLU"
  bottom: "aniprobing-3_3"
  top: "aniprobing-3_3"
}

layer {
  name: "reshape"
  type: "Reshape"
  bottom: "aniprobing-3_3"
  top: "aniprobing-3-rs_3"
  reshape_param {
    shape {
      dim: 0
      dim: 1
      dim: 30
      dim: 30
    }
  }
}
####################
layer {
  name: "conv1_3"
  type: "Convolution"
  bottom: "aniprobing-3-rs_3"
  top: "conv1_3"
  param {
    name: "conv1_w"
    lr_mult: 0
  }
  param {
    name: "conv1_b"
    lr_mult: 0
  }
  convolution_param {
    num_output: 128
    pad: 3
    kernel_size: 5
    weight_filler {
      type: "gaussian"
      std: 0.28
    }
    bias_filler {
      type: "constant"
    }
  }
}
layer {
  name: "relu1_3"
  type: "ReLU"
  bottom: "conv1_3"
  top: "conv1_3"
}
layer {
  name: "cccp11_3"
  type: "Convolution"
;  bottom: "conv1_3"
  top: "cccp11_3"
  param {
    name: "cccp11_w"
    lr_mult: 0
  }
  param {
    name: "cccp11_b"
    lr_mult: 0
  }
  convolution_param {
    num_output: 96
    kernel_size: 1
    group: 1
    weight_filler {
      type: "gaussian"
      std: 0.1
    }
    bias_filler {
      type: "constant"
      value: 0
    }
  }
}
layer {
  name: "relu_cccp11_3"
  type: "ReLU"
  bottom: "cccp11_3"
  top: "cccp11_3"
}
layer {
  name: "cccp12_3"
  type: "Convolution"
  bottom: "cccp11_3"
  top: "cccp12_3"
  param {
    name: "cccp12_w"
    lr_mult: 0
  }
  param {
    name: "cccp12_b"
    lr_mult: 0
  }
  convolution_param {
    num_output: 96
    kernel_size: 1
    group: 1
    weight_filler {
      type: "gaussian"
      std: 0.11
    }
    bias_filler {
      type: "constant"
      value: 0
    }
  }
}
layer {
  name: "relu_cccp12_3"
  type: "ReLU"
  bottom: "cccp12_3"
  top: "cccp12_3"
}
layer {
  name: "pool1_3"
  type: "Pooling"
  bottom: "cccp12_3"
  top: "pool1_3"
  pooling_param {
    pool: MAX
    kernel_size: 3
    stride: 2
  }
}
layer {
  name: "drop1_3"
  type: "Dropout"
  bottom: "pool1_3"
  top: "pool1_3"
  dropout_param {
    dropout_ratio: 0.5
  }
}
layer {
  name: "conv2_3"
  type: "Convolution"
  bottom: "pool1_3"
  top: "conv2_3"
  param {
    name: "conv2_w"
    lr_mult: 0
  }
  param {
    name: "conv2_b"
    lr_mult: 0
  }
  convolution_param {
    num_output: 128
    pad: 2
    kernel_size: 5
    weight_filler {
      type: "gaussian"
      std: 0.03
    }
    bias_filler {
      type: "constant"
    }
  }
}
layer {
  name: "relu2_3"
  type: "ReLU"
  bottom: "conv2_3"
  top: "conv2_3"
}
layer {
  name: "cccp21_3"
  type: "Convolution"
  bottom: "conv2_3"
  top: "cccp21_3"
  param {
    name: "cccp21_w"
    lr_mult: 0
  }
  param {
    name: "cccp21_b"
    lr_mult: 0
  }
  convolution_param {
    num_output: 96
    kernel_size: 1
    group: 1
    weight_filler {
      type: "gaussian"
      std: 0.1
    }
    bias_filler {
      type: "constant"
      value: 0
    }
  }
}
layer {
  name: "relu_cccp21_3"
  type: "ReLU"
  bottom: "cccp21_3"
  top: "cccp21_3"
}
layer {
  name: "cccp22_3"
  type: "Convolution"
  bottom: "cccp21_3"
  top: "cccp22_3"
  param {
    name: "cccp22_w"
    lr_mult: 0
  }
  param {
    name: "cccp22_b"
    lr_mult: 0
  }
  convolution_param {
    num_output: 96
    kernel_size: 1
    group: 1
    weight_filler {
      type: "gaussian"
      std: 0.1
    }
    bias_filler {
      type: "constant"
      value: 0
    }
  }
}
layer {
  name: "relu_cccp22_3"
  type: "ReLU"
  bottom: "cccp22_3"
  top: "cccp22_3"
}
layer {
  name: "pool2_3"
  type: "Pooling"
  bottom: "cccp22_3"
  top: "pool2_3"
  pooling_param {
    pool: AVE
    kernel_size: 3
    stride: 2
  }
}
layer {
  name: "drop2_3"
  type: "Dropout"
  bottom: "pool2_3"
  top: "pool2_3"
  dropout_param {
    dropout_ratio: 0.5
  }
}
layer {
  name: "conv3_3"
  type: "Convolution"
  bottom: "pool2_3"
  top: "conv3_3"
  param {
    name: "conv3_w"
    lr_mult: 0
  }
  param {
    name: "conv3_b"
    lr_mult: 0
  }
  convolution_param {
    num_output: 128
    pad: 1
    kernel_size: 3
    weight_filler {
      type: "gaussian"
      std: 0.03
    }
    bias_filler {
      type: "constant"
    }
  }
}
layer {
  name: "relu3_3"
  type: "ReLU"
  bottom: "conv3_3"
  top: "conv3_3"
}
layer {
  name: "cccp31_3"
  type: "Convolution"
  bottom: "conv3_3"
  top: "cccp31_3"
  param {
    name: "cccp31_w"
    lr_mult: 0
  }
  param {
    name: "cccp31_b"
    lr_mult: 0
  }
  convolution_param {
    num_output: 128
    kernel_size: 1
    group: 1
    weight_filler {
      type: "gaussian"
      std: 0.1
    }
    bias_filler {
      type: "constant"
      value: 0
    }
  }
}
# -> conv-out: 128 x 5 x 1 x 30 x 30
layer {
  name: "aniprobing-1_4"
  type: "Convolution"
  bottom: "data_4"
  top: "aniprobing-1_4"
  param {
    name: "aniprobing-1_w"
    lr_mult: 0
  }
  param {
    name: "aniprobing-1_b"
    lr_mult: 0
  }
  convolution_param {
    num_output: 5
    axis: 1
    kernel_size: 30
    kernel_size: 1
    kernel_size: 1
    stride: 30
    stride: 1
    stride: 1
    weight_filler {
        type: "gaussian"
        std: 0.25
    }
    bias_filler {
        type: "constant"
        value: 0
    }
  }
}

layer {
  name: "relu-1_4"
  type: "ReLU"
  bottom: "aniprobing-1_4"
  top: "aniprobing-1_4"
}

# -> conv-out: 128 x 1 x 5 x 30 x 30
layer {
  name: "reshape"
  type: "Reshape"
  bottom: "aniprobing-1_4"
  top: "aniprobing-1-rs_4"
  reshape_param {
    shape {
      dim: 0
      dim: 1
      dim: 5
      dim: 30
      dim: 30
    }
  }
}

# -> conv-out: 128 x 5 x 1 x 30 x 30
layer {
  name: "aniprobing-2_4"
  type: "Convolution"
  bottom: "aniprobing-1-rs_4"
  top: "aniprobing-2_4"
  param {
    name: "aniprobing-2_w"
    lr_mult: 0
  }
  param {
    name: "aniprobing-2_b"
    lr_mult: 0
  }
  convolution_param {
    num_output: 5
    axis: 1
    kernel_size: 5
    kernel_size: 1
    kernel_size: 1
    stride: 5
    stride: 1
    stride: 1
    weight_filler {
        type: "gaussian"
        std: 0.45
    }
    bias_filler {
        type: "constant"
        value: 0
    }
  }
}
layer {
  name: "relu-2_4"
  type: "ReLU"
  bottom: "aniprobing-2_4"
  top: "aniprobing-2_4"
}
layer {
  name: "reshape"
  type: "Reshape"
  bottom: "aniprobing-2_4"
  top: "aniprobing-2-rs_4"
  reshape_param {
    shape {
      dim: 0
      dim: 1
      dim: 5
      dim: 30
      dim: 30
    }
  }
}

# -> conv-out: 128 x 1 x 1 x 30 x 30
layer {
  name: "aniprobing-3_4"
  type: "Convolution"
  bottom: "aniprobing-2-rs_4"
  top: "aniprobing-3_4"
  param {
    name: "aniprobing-3_w"
    lr_mult: 0
  }
  param {
    name: "aniprobing-3_b"
    lr_mult: 0
  }
  convolution_param {
    num_output: 1
    axis: 1
    kernel_size: 5
    kernel_size: 1
    kernel_size: 1
    stride: 5
    stride: 1
    stride: 1
    weight_filler {
        type: "gaussian"
        std: 0.63
    }
    bias_filler {
        type: "constant"
        value: 0
    }
  }
}

layer {
  name: "relu-3_4"
  type: "ReLU"
  bottom: "aniprobing-3_4"
  top: "aniprobing-3_4"
}

layer {
  name: "reshape"
  type: "Reshape"
  bottom: "aniprobing-3_4"
  top: "aniprobing-3-rs_4"
  reshape_param {
    shape {
      dim: 0
      dim: 1
      dim: 30
      dim: 30
    }
  }
}
####################
layer {
  name: "conv1_4"
  type: "Convolution"
  bottom: "aniprobing-3-rs_4"
  top: "conv1_4"
  param {
    name: "conv1_w"
    lr_mult: 0
  }
  param {
    name: "conv1_b"
    lr_mult: 0
  }
  convolution_param {
    num_output: 128
    pad: 3
    kernel_size: 5
    weight_filler {
      type: "gaussian"
      std: 0.28
    }
    bias_filler {
      type: "constant"
    }
  }
}
layer {
  name: "relu1_4"
  type: "ReLU"
  bottom: "conv1_4"
  top: "conv1_4"
}
layer {
  name: "cccp11_4"
  type: "Convolution"
;  bottom: "conv1_4"
  top: "cccp11_4"
  param {
    name: "cccp11_w"
    lr_mult: 0
  }
  param {
    name: "cccp11_b"
    lr_mult: 0
  }
  convolution_param {
    num_output: 96
    kernel_size: 1
    group: 1
    weight_filler {
      type: "gaussian"
      std: 0.1
    }
    bias_filler {
      type: "constant"
      value: 0
    }
  }
}
layer {
  name: "relu_cccp11_4"
  type: "ReLU"
  bottom: "cccp11_4"
  top: "cccp11_4"
}
layer {
  name: "cccp12_4"
  type: "Convolution"
  bottom: "cccp11_4"
  top: "cccp12_4"
  param {
    name: "cccp12_w"
    lr_mult: 0
  }
  param {
    name: "cccp12_b"
    lr_mult: 0
  }
  convolution_param {
    num_output: 96
    kernel_size: 1
    group: 1
    weight_filler {
      type: "gaussian"
      std: 0.11
    }
    bias_filler {
      type: "constant"
      value: 0
    }
  }
}
layer {
  name: "relu_cccp12_4"
  type: "ReLU"
  bottom: "cccp12_4"
  top: "cccp12_4"
}
layer {
  name: "pool1_4"
  type: "Pooling"
  bottom: "cccp12_4"
  top: "pool1_4"
  pooling_param {
    pool: MAX
    kernel_size: 3
    stride: 2
  }
}
layer {
  name: "drop1_4"
  type: "Dropout"
  bottom: "pool1_4"
  top: "pool1_4"
  dropout_param {
    dropout_ratio: 0.5
  }
}
layer {
  name: "conv2_4"
  type: "Convolution"
  bottom: "pool1_4"
  top: "conv2_4"
  param {
    name: "conv2_w"
    lr_mult: 0
  }
  param {
    name: "conv2_b"
    lr_mult: 0
  }
  convolution_param {
    num_output: 128
    pad: 2
    kernel_size: 5
    weight_filler {
      type: "gaussian"
      std: 0.03
    }
    bias_filler {
      type: "constant"
    }
  }
}
layer {
  name: "relu2_4"
  type: "ReLU"
  bottom: "conv2_4"
  top: "conv2_4"
}
layer {
  name: "cccp21_4"
  type: "Convolution"
  bottom: "conv2_4"
  top: "cccp21_4"
  param {
    name: "cccp21_w"
    lr_mult: 0
  }
  param {
    name: "cccp21_b"
    lr_mult: 0
  }
  convolution_param {
    num_output: 96
    kernel_size: 1
    group: 1
    weight_filler {
      type: "gaussian"
      std: 0.1
    }
    bias_filler {
      type: "constant"
      value: 0
    }
  }
}
layer {
  name: "relu_cccp21_4"
  type: "ReLU"
  bottom: "cccp21_4"
  top: "cccp21_4"
}
layer {
  name: "cccp22_4"
  type: "Convolution"
  bottom: "cccp21_4"
  top: "cccp22_4"
  param {
    name: "cccp22_w"
    lr_mult: 0
  }
  param {
    name: "cccp22_b"
    lr_mult: 0
  }
  convolution_param {
    num_output: 96
    kernel_size: 1
    group: 1
    weight_filler {
      type: "gaussian"
      std: 0.1
    }
    bias_filler {
      type: "constant"
      value: 0
    }
  }
}
layer {
  name: "relu_cccp22_4"
  type: "ReLU"
  bottom: "cccp22_4"
  top: "cccp22_4"
}
layer {
  name: "pool2_4"
  type: "Pooling"
  bottom: "cccp22_4"
  top: "pool2_4"
  pooling_param {
    pool: AVE
    kernel_size: 3
    stride: 2
  }
}
layer {
  name: "drop2_4"
  type: "Dropout"
  bottom: "pool2_4"
  top: "pool2_4"
  dropout_param {
    dropout_ratio: 0.5
  }
}
layer {
  name: "conv3_4"
  type: "Convolution"
  bottom: "pool2_4"
  top: "conv3_4"
  param {
    name: "conv3_w"
    lr_mult: 0
  }
  param {
    name: "conv3_b"
    lr_mult: 0
  }
  convolution_param {
    num_output: 128
    pad: 1
    kernel_size: 3
    weight_filler {
      type: "gaussian"
      std: 0.03
    }
    bias_filler {
      type: "constant"
    }
  }
}
layer {
  name: "relu3_4"
  type: "ReLU"
  bottom: "conv3_4"
  top: "conv3_4"
}
layer {
  name: "cccp31_4"
  type: "Convolution"
  bottom: "conv3_4"
  top: "cccp31_4"
  param {
    name: "cccp31_w"
    lr_mult: 0
  }
  param {
    name: "cccp31_b"
    lr_mult: 0
  }
  convolution_param {
    num_output: 128
    kernel_size: 1
    group: 1
    weight_filler {
      type: "gaussian"
      std: 0.1
    }
    bias_filler {
      type: "constant"
      value: 0
    }
  }
}
# -> conv-out: 128 x 5 x 1 x 30 x 30
layer {
  name: "aniprobing-1_5"
  type: "Convolution"
  bottom: "data_5"
  top: "aniprobing-1_5"
  param {
    name: "aniprobing-1_w"
    lr_mult: 0
  }
  param {
    name: "aniprobing-1_b"
    lr_mult: 0
  }
  convolution_param {
    num_output: 5
    axis: 1
    kernel_size: 30
    kernel_size: 1
    kernel_size: 1
    stride: 30
    stride: 1
    stride: 1
    weight_filler {
        type: "gaussian"
        std: 0.25
    }
    bias_filler {
        type: "constant"
        value: 0
    }
  }
}

layer {
  name: "relu-1_5"
  type: "ReLU"
  bottom: "aniprobing-1_5"
  top: "aniprobing-1_5"
}

# -> conv-out: 128 x 1 x 5 x 30 x 30
layer {
  name: "reshape"
  type: "Reshape"
  bottom: "aniprobing-1_5"
  top: "aniprobing-1-rs_5"
  reshape_param {
    shape {
      dim: 0
      dim: 1
      dim: 5
      dim: 30
      dim: 30
    }
  }
}

# -> conv-out: 128 x 5 x 1 x 30 x 30
layer {
  name: "aniprobing-2_5"
  type: "Convolution"
  bottom: "aniprobing-1-rs_5"
  top: "aniprobing-2_5"
  param {
    name: "aniprobing-2_w"
    lr_mult: 0
  }
  param {
    name: "aniprobing-2_b"
    lr_mult: 0
  }
  convolution_param {
    num_output: 5
    axis: 1
    kernel_size: 5
    kernel_size: 1
    kernel_size: 1
    stride: 5
    stride: 1
    stride: 1
    weight_filler {
        type: "gaussian"
        std: 0.45
    }
    bias_filler {
        type: "constant"
        value: 0
    }
  }
}
layer {
  name: "relu-2_5"
  type: "ReLU"
  bottom: "aniprobing-2_5"
  top: "aniprobing-2_5"
}
layer {
  name: "reshape"
  type: "Reshape"
  bottom: "aniprobing-2_5"
  top: "aniprobing-2-rs_5"
  reshape_param {
    shape {
      dim: 0
      dim: 1
      dim: 5
      dim: 30
      dim: 30
    }
  }
}

# -> conv-out: 128 x 1 x 1 x 30 x 30
layer {
  name: "aniprobing-3_5"
  type: "Convolution"
  bottom: "aniprobing-2-rs_5"
  top: "aniprobing-3_5"
  param {
    name: "aniprobing-3_w"
    lr_mult: 0
  }
  param {
    name: "aniprobing-3_b"
    lr_mult: 0
  }
  convolution_param {
    num_output: 1
    axis: 1
    kernel_size: 5
    kernel_size: 1
    kernel_size: 1
    stride: 5
    stride: 1
    stride: 1
    weight_filler {
        type: "gaussian"
        std: 0.63
    }
    bias_filler {
        type: "constant"
        value: 0
    }
  }
}

layer {
  name: "relu-3_5"
  type: "ReLU"
  bottom: "aniprobing-3_5"
  top: "aniprobing-3_5"
}

layer {
  name: "reshape"
  type: "Reshape"
  bottom: "aniprobing-3_5"
  top: "aniprobing-3-rs_5"
  reshape_param {
    shape {
      dim: 0
      dim: 1
      dim: 30
      dim: 30
    }
  }
}
####################
layer {
  name: "conv1_5"
  type: "Convolution"
  bottom: "aniprobing-3-rs_5"
  top: "conv1_5"
  param {
    name: "conv1_w"
    lr_mult: 0
  }
  param {
    name: "conv1_b"
    lr_mult: 0
  }
  convolution_param {
    num_output: 128
    pad: 3
    kernel_size: 5
    weight_filler {
      type: "gaussian"
      std: 0.28
    }
    bias_filler {
      type: "constant"
    }
  }
}
layer {
  name: "relu1_5"
  type: "ReLU"
  bottom: "conv1_5"
  top: "conv1_5"
}
layer {
  name: "cccp11_5"
  type: "Convolution"
;  bottom: "conv1_5"
  top: "cccp11_5"
  param {
    name: "cccp11_w"
    lr_mult: 0
  }
  param {
    name: "cccp11_b"
    lr_mult: 0
  }
  convolution_param {
    num_output: 96
    kernel_size: 1
    group: 1
    weight_filler {
      type: "gaussian"
      std: 0.1
    }
    bias_filler {
      type: "constant"
      value: 0
    }
  }
}
layer {
  name: "relu_cccp11_5"
  type: "ReLU"
  bottom: "cccp11_5"
  top: "cccp11_5"
}
layer {
  name: "cccp12_5"
  type: "Convolution"
  bottom: "cccp11_5"
  top: "cccp12_5"
  param {
    name: "cccp12_w"
    lr_mult: 0
  }
  param {
    name: "cccp12_b"
    lr_mult: 0
  }
  convolution_param {
    num_output: 96
    kernel_size: 1
    group: 1
    weight_filler {
      type: "gaussian"
      std: 0.11
    }
    bias_filler {
      type: "constant"
      value: 0
    }
  }
}
layer {
  name: "relu_cccp12_5"
  type: "ReLU"
  bottom: "cccp12_5"
  top: "cccp12_5"
}
layer {
  name: "pool1_5"
  type: "Pooling"
  bottom: "cccp12_5"
  top: "pool1_5"
  pooling_param {
    pool: MAX
    kernel_size: 3
    stride: 2
  }
}
layer {
  name: "drop1_5"
  type: "Dropout"
  bottom: "pool1_5"
  top: "pool1_5"
  dropout_param {
    dropout_ratio: 0.5
  }
}
layer {
  name: "conv2_5"
  type: "Convolution"
  bottom: "pool1_5"
  top: "conv2_5"
  param {
    name: "conv2_w"
    lr_mult: 0
  }
  param {
    name: "conv2_b"
    lr_mult: 0
  }
  convolution_param {
    num_output: 128
    pad: 2
    kernel_size: 5
    weight_filler {
      type: "gaussian"
      std: 0.03
    }
    bias_filler {
      type: "constant"
    }
  }
}
layer {
  name: "relu2_5"
  type: "ReLU"
  bottom: "conv2_5"
  top: "conv2_5"
}
layer {
  name: "cccp21_5"
  type: "Convolution"
  bottom: "conv2_5"
  top: "cccp21_5"
  param {
    name: "cccp21_w"
    lr_mult: 0
  }
  param {
    name: "cccp21_b"
    lr_mult: 0
  }
  convolution_param {
    num_output: 96
    kernel_size: 1
    group: 1
    weight_filler {
      type: "gaussian"
      std: 0.1
    }
    bias_filler {
      type: "constant"
      value: 0
    }
  }
}
layer {
  name: "relu_cccp21_5"
  type: "ReLU"
  bottom: "cccp21_5"
  top: "cccp21_5"
}
layer {
  name: "cccp22_5"
  type: "Convolution"
  bottom: "cccp21_5"
  top: "cccp22_5"
  param {
    name: "cccp22_w"
    lr_mult: 0
  }
  param {
    name: "cccp22_b"
    lr_mult: 0
  }
  convolution_param {
    num_output: 96
    kernel_size: 1
    group: 1
    weight_filler {
      type: "gaussian"
      std: 0.1
    }
    bias_filler {
      type: "constant"
      value: 0
    }
  }
}
layer {
  name: "relu_cccp22_5"
  type: "ReLU"
  bottom: "cccp22_5"
  top: "cccp22_5"
}
layer {
  name: "pool2_5"
  type: "Pooling"
  bottom: "cccp22_5"
  top: "pool2_5"
  pooling_param {
    pool: AVE
    kernel_size: 3
    stride: 2
  }
}
layer {
  name: "drop2_5"
  type: "Dropout"
  bottom: "pool2_5"
  top: "pool2_5"
  dropout_param {
    dropout_ratio: 0.5
  }
}
layer {
  name: "conv3_5"
  type: "Convolution"
  bottom: "pool2_5"
  top: "conv3_5"
  param {
    name: "conv3_w"
    lr_mult: 0
  }
  param {
    name: "conv3_b"
    lr_mult: 0
  }
  convolution_param {
    num_output: 128
    pad: 1
    kernel_size: 3
    weight_filler {
      type: "gaussian"
      std: 0.03
    }
    bias_filler {
      type: "constant"
    }
  }
}
layer {
  name: "relu3_5"
  type: "ReLU"
  bottom: "conv3_5"
  top: "conv3_5"
}
layer {
  name: "cccp31_5"
  type: "Convolution"
  bottom: "conv3_5"
  top: "cccp31_5"
  param {
    name: "cccp31_w"
    lr_mult: 0
  }
  param {
    name: "cccp31_b"
    lr_mult: 0
  }
  convolution_param {
    num_output: 128
    kernel_size: 1
    group: 1
    weight_filler {
      type: "gaussian"
      std: 0.1
    }
    bias_filler {
      type: "constant"
      value: 0
    }
  }
}
# -> conv-out: 128 x 5 x 1 x 30 x 30
layer {
  name: "aniprobing-1_6"
  type: "Convolution"
  bottom: "data_6"
  top: "aniprobing-1_6"
  param {
    name: "aniprobing-1_w"
    lr_mult: 0
  }
  param {
    name: "aniprobing-1_b"
    lr_mult: 0
  }
  convolution_param {
    num_output: 5
    axis: 1
    kernel_size: 30
    kernel_size: 1
    kernel_size: 1
    stride: 30
    stride: 1
    stride: 1
    weight_filler {
        type: "gaussian"
        std: 0.25
    }
    bias_filler {
        type: "constant"
        value: 0
    }
  }
}

layer {
  name: "relu-1_6"
  type: "ReLU"
  bottom: "aniprobing-1_6"
  top: "aniprobing-1_6"
}

# -> conv-out: 128 x 1 x 5 x 30 x 30
layer {
  name: "reshape"
  type: "Reshape"
  bottom: "aniprobing-1_6"
  top: "aniprobing-1-rs_6"
  reshape_param {
    shape {
      dim: 0
      dim: 1
      dim: 5
      dim: 30
      dim: 30
    }
  }
}

# -> conv-out: 128 x 5 x 1 x 30 x 30
layer {
  name: "aniprobing-2_6"
  type: "Convolution"
  bottom: "aniprobing-1-rs_6"
  top: "aniprobing-2_6"
  param {
    name: "aniprobing-2_w"
    lr_mult: 0
  }
  param {
    name: "aniprobing-2_b"
    lr_mult: 0
  }
  convolution_param {
    num_output: 5
    axis: 1
    kernel_size: 5
    kernel_size: 1
    kernel_size: 1
    stride: 5
    stride: 1
    stride: 1
    weight_filler {
        type: "gaussian"
        std: 0.45
    }
    bias_filler {
        type: "constant"
        value: 0
    }
  }
}
layer {
  name: "relu-2_6"
  type: "ReLU"
  bottom: "aniprobing-2_6"
  top: "aniprobing-2_6"
}
layer {
  name: "reshape"
  type: "Reshape"
  bottom: "aniprobing-2_6"
  top: "aniprobing-2-rs_6"
  reshape_param {
    shape {
      dim: 0
      dim: 1
      dim: 5
      dim: 30
      dim: 30
    }
  }
}

# -> conv-out: 128 x 1 x 1 x 30 x 30
layer {
  name: "aniprobing-3_6"
  type: "Convolution"
  bottom: "aniprobing-2-rs_6"
  top: "aniprobing-3_6"
  param {
    name: "aniprobing-3_w"
    lr_mult: 0
  }
  param {
    name: "aniprobing-3_b"
    lr_mult: 0
  }
  convolution_param {
    num_output: 1
    axis: 1
    kernel_size: 5
    kernel_size: 1
    kernel_size: 1
    stride: 5
    stride: 1
    stride: 1
    weight_filler {
        type: "gaussian"
        std: 0.63
    }
    bias_filler {
        type: "constant"
        value: 0
    }
  }
}

layer {
  name: "relu-3_6"
  type: "ReLU"
  bottom: "aniprobing-3_6"
  top: "aniprobing-3_6"
}

layer {
  name: "reshape"
  type: "Reshape"
  bottom: "aniprobing-3_6"
  top: "aniprobing-3-rs_6"
  reshape_param {
    shape {
      dim: 0
      dim: 1
      dim: 30
      dim: 30
    }
  }
}
####################
layer {
  name: "conv1_6"
  type: "Convolution"
  bottom: "aniprobing-3-rs_6"
  top: "conv1_6"
  param {
    name: "conv1_w"
    lr_mult: 0
  }
  param {
    name: "conv1_b"
    lr_mult: 0
  }
  convolution_param {
    num_output: 128
    pad: 3
    kernel_size: 5
    weight_filler {
      type: "gaussian"
      std: 0.28
    }
    bias_filler {
      type: "constant"
    }
  }
}
layer {
  name: "relu1_6"
  type: "ReLU"
  bottom: "conv1_6"
  top: "conv1_6"
}
layer {
  name: "cccp11_6"
  type: "Convolution"
;  bottom: "conv1_6"
  top: "cccp11_6"
  param {
    name: "cccp11_w"
    lr_mult: 0
  }
  param {
    name: "cccp11_b"
    lr_mult: 0
  }
  convolution_param {
    num_output: 96
    kernel_size: 1
    group: 1
    weight_filler {
      type: "gaussian"
      std: 0.1
    }
    bias_filler {
      type: "constant"
      value: 0
    }
  }
}
layer {
  name: "relu_cccp11_6"
  type: "ReLU"
  bottom: "cccp11_6"
  top: "cccp11_6"
}
layer {
  name: "cccp12_6"
  type: "Convolution"
  bottom: "cccp11_6"
  top: "cccp12_6"
  param {
    name: "cccp12_w"
    lr_mult: 0
  }
  param {
    name: "cccp12_b"
    lr_mult: 0
  }
  convolution_param {
    num_output: 96
    kernel_size: 1
    group: 1
    weight_filler {
      type: "gaussian"
      std: 0.11
    }
    bias_filler {
      type: "constant"
      value: 0
    }
  }
}
layer {
  name: "relu_cccp12_6"
  type: "ReLU"
  bottom: "cccp12_6"
  top: "cccp12_6"
}
layer {
  name: "pool1_6"
  type: "Pooling"
  bottom: "cccp12_6"
  top: "pool1_6"
  pooling_param {
    pool: MAX
    kernel_size: 3
    stride: 2
  }
}
layer {
  name: "drop1_6"
  type: "Dropout"
  bottom: "pool1_6"
  top: "pool1_6"
  dropout_param {
    dropout_ratio: 0.5
  }
}
layer {
  name: "conv2_6"
  type: "Convolution"
  bottom: "pool1_6"
  top: "conv2_6"
  param {
    name: "conv2_w"
    lr_mult: 0
  }
  param {
    name: "conv2_b"
    lr_mult: 0
  }
  convolution_param {
    num_output: 128
    pad: 2
    kernel_size: 5
    weight_filler {
      type: "gaussian"
      std: 0.03
    }
    bias_filler {
      type: "constant"
    }
  }
}
layer {
  name: "relu2_6"
  type: "ReLU"
  bottom: "conv2_6"
  top: "conv2_6"
}
layer {
  name: "cccp21_6"
  type: "Convolution"
  bottom: "conv2_6"
  top: "cccp21_6"
  param {
    name: "cccp21_w"
    lr_mult: 0
  }
  param {
    name: "cccp21_b"
    lr_mult: 0
  }
  convolution_param {
    num_output: 96
    kernel_size: 1
    group: 1
    weight_filler {
      type: "gaussian"
      std: 0.1
    }
    bias_filler {
      type: "constant"
      value: 0
    }
  }
}
layer {
  name: "relu_cccp21_6"
  type: "ReLU"
  bottom: "cccp21_6"
  top: "cccp21_6"
}
layer {
  name: "cccp22_6"
  type: "Convolution"
  bottom: "cccp21_6"
  top: "cccp22_6"
  param {
    name: "cccp22_w"
    lr_mult: 0
  }
  param {
    name: "cccp22_b"
    lr_mult: 0
  }
  convolution_param {
    num_output: 96
    kernel_size: 1
    group: 1
    weight_filler {
      type: "gaussian"
      std: 0.1
    }
    bias_filler {
      type: "constant"
      value: 0
    }
  }
}
layer {
  name: "relu_cccp22_6"
  type: "ReLU"
  bottom: "cccp22_6"
  top: "cccp22_6"
}
layer {
  name: "pool2_6"
  type: "Pooling"
  bottom: "cccp22_6"
  top: "pool2_6"
  pooling_param {
    pool: AVE
    kernel_size: 3
    stride: 2
  }
}
layer {
  name: "drop2_6"
  type: "Dropout"
  bottom: "pool2_6"
  top: "pool2_6"
  dropout_param {
    dropout_ratio: 0.5
  }
}
layer {
  name: "conv3_6"
  type: "Convolution"
  bottom: "pool2_6"
  top: "conv3_6"
  param {
    name: "conv3_w"
    lr_mult: 0
  }
  param {
    name: "conv3_b"
    lr_mult: 0
  }
  convolution_param {
    num_output: 128
    pad: 1
    kernel_size: 3
    weight_filler {
      type: "gaussian"
      std: 0.03
    }
    bias_filler {
      type: "constant"
    }
  }
}
layer {
  name: "relu3_6"
  type: "ReLU"
  bottom: "conv3_6"
  top: "conv3_6"
}
layer {
  name: "cccp31_6"
  type: "Convolution"
  bottom: "conv3_6"
  top: "cccp31_6"
  param {
    name: "cccp31_w"
    lr_mult: 0
  }
  param {
    name: "cccp31_b"
    lr_mult: 0
  }
  convolution_param {
    num_output: 128
    kernel_size: 1
    group: 1
    weight_filler {
      type: "gaussian"
      std: 0.1
    }
    bias_filler {
      type: "constant"
      value: 0
    }
  }
}
# -> conv-out: 128 x 5 x 1 x 30 x 30
layer {
  name: "aniprobing-1_7"
  type: "Convolution"
  bottom: "data_7"
  top: "aniprobing-1_7"
  param {
    name: "aniprobing-1_w"
    lr_mult: 0
  }
  param {
    name: "aniprobing-1_b"
    lr_mult: 0
  }
  convolution_param {
    num_output: 5
    axis: 1
    kernel_size: 30
    kernel_size: 1
    kernel_size: 1
    stride: 30
    stride: 1
    stride: 1
    weight_filler {
        type: "gaussian"
        std: 0.25
    }
    bias_filler {
        type: "constant"
        value: 0
    }
  }
}

layer {
  name: "relu-1_7"
  type: "ReLU"
  bottom: "aniprobing-1_7"
  top: "aniprobing-1_7"
}

# -> conv-out: 128 x 1 x 5 x 30 x 30
layer {
  name: "reshape"
  type: "Reshape"
  bottom: "aniprobing-1_7"
  top: "aniprobing-1-rs_7"
  reshape_param {
    shape {
      dim: 0
      dim: 1
      dim: 5
      dim: 30
      dim: 30
    }
  }
}

# -> conv-out: 128 x 5 x 1 x 30 x 30
layer {
  name: "aniprobing-2_7"
  type: "Convolution"
  bottom: "aniprobing-1-rs_7"
  top: "aniprobing-2_7"
  param {
    name: "aniprobing-2_w"
    lr_mult: 0
  }
  param {
    name: "aniprobing-2_b"
    lr_mult: 0
  }
  convolution_param {
    num_output: 5
    axis: 1
    kernel_size: 5
    kernel_size: 1
    kernel_size: 1
    stride: 5
    stride: 1
    stride: 1
    weight_filler {
        type: "gaussian"
        std: 0.45
    }
    bias_filler {
        type: "constant"
        value: 0
    }
  }
}
layer {
  name: "relu-2_7"
  type: "ReLU"
  bottom: "aniprobing-2_7"
  top: "aniprobing-2_7"
}
layer {
  name: "reshape"
  type: "Reshape"
  bottom: "aniprobing-2_7"
  top: "aniprobing-2-rs_7"
  reshape_param {
    shape {
      dim: 0
      dim: 1
      dim: 5
      dim: 30
      dim: 30
    }
  }
}

# -> conv-out: 128 x 1 x 1 x 30 x 30
layer {
  name: "aniprobing-3_7"
  type: "Convolution"
  bottom: "aniprobing-2-rs_7"
  top: "aniprobing-3_7"
  param {
    name: "aniprobing-3_w"
    lr_mult: 0
  }
  param {
    name: "aniprobing-3_b"
    lr_mult: 0
  }
  convolution_param {
    num_output: 1
    axis: 1
    kernel_size: 5
    kernel_size: 1
    kernel_size: 1
    stride: 5
    stride: 1
    stride: 1
    weight_filler {
        type: "gaussian"
        std: 0.63
    }
    bias_filler {
        type: "constant"
        value: 0
    }
  }
}

layer {
  name: "relu-3_7"
  type: "ReLU"
  bottom: "aniprobing-3_7"
  top: "aniprobing-3_7"
}

layer {
  name: "reshape"
  type: "Reshape"
  bottom: "aniprobing-3_7"
  top: "aniprobing-3-rs_7"
  reshape_param {
    shape {
      dim: 0
      dim: 1
      dim: 30
      dim: 30
    }
  }
}
####################
layer {
  name: "conv1_7"
  type: "Convolution"
  bottom: "aniprobing-3-rs_7"
  top: "conv1_7"
  param {
    name: "conv1_w"
    lr_mult: 0
  }
  param {
    name: "conv1_b"
    lr_mult: 0
  }
  convolution_param {
    num_output: 128
    pad: 3
    kernel_size: 5
    weight_filler {
      type: "gaussian"
      std: 0.28
    }
    bias_filler {
      type: "constant"
    }
  }
}
layer {
  name: "relu1_7"
  type: "ReLU"
  bottom: "conv1_7"
  top: "conv1_7"
}
layer {
  name: "cccp11_7"
  type: "Convolution"
;  bottom: "conv1_7"
  top: "cccp11_7"
  param {
    name: "cccp11_w"
    lr_mult: 0
  }
  param {
    name: "cccp11_b"
    lr_mult: 0
  }
  convolution_param {
    num_output: 96
    kernel_size: 1
    group: 1
    weight_filler {
      type: "gaussian"
      std: 0.1
    }
    bias_filler {
      type: "constant"
      value: 0
    }
  }
}
layer {
  name: "relu_cccp11_7"
  type: "ReLU"
  bottom: "cccp11_7"
  top: "cccp11_7"
}
layer {
  name: "cccp12_7"
  type: "Convolution"
  bottom: "cccp11_7"
  top: "cccp12_7"
  param {
    name: "cccp12_w"
    lr_mult: 0
  }
  param {
    name: "cccp12_b"
    lr_mult: 0
  }
  convolution_param {
    num_output: 96
    kernel_size: 1
    group: 1
    weight_filler {
      type: "gaussian"
      std: 0.11
    }
    bias_filler {
      type: "constant"
      value: 0
    }
  }
}
layer {
  name: "relu_cccp12_7"
  type: "ReLU"
  bottom: "cccp12_7"
  top: "cccp12_7"
}
layer {
  name: "pool1_7"
  type: "Pooling"
  bottom: "cccp12_7"
  top: "pool1_7"
  pooling_param {
    pool: MAX
    kernel_size: 3
    stride: 2
  }
}
layer {
  name: "drop1_7"
  type: "Dropout"
  bottom: "pool1_7"
  top: "pool1_7"
  dropout_param {
    dropout_ratio: 0.5
  }
}
layer {
  name: "conv2_7"
  type: "Convolution"
  bottom: "pool1_7"
  top: "conv2_7"
  param {
    name: "conv2_w"
    lr_mult: 0
  }
  param {
    name: "conv2_b"
    lr_mult: 0
  }
  convolution_param {
    num_output: 128
    pad: 2
    kernel_size: 5
    weight_filler {
      type: "gaussian"
      std: 0.03
    }
    bias_filler {
      type: "constant"
    }
  }
}
layer {
  name: "relu2_7"
  type: "ReLU"
  bottom: "conv2_7"
  top: "conv2_7"
}
layer {
  name: "cccp21_7"
  type: "Convolution"
  bottom: "conv2_7"
  top: "cccp21_7"
  param {
    name: "cccp21_w"
    lr_mult: 0
  }
  param {
    name: "cccp21_b"
    lr_mult: 0
  }
  convolution_param {
    num_output: 96
    kernel_size: 1
    group: 1
    weight_filler {
      type: "gaussian"
      std: 0.1
    }
    bias_filler {
      type: "constant"
      value: 0
    }
  }
}
layer {
  name: "relu_cccp21_7"
  type: "ReLU"
  bottom: "cccp21_7"
  top: "cccp21_7"
}
layer {
  name: "cccp22_7"
  type: "Convolution"
  bottom: "cccp21_7"
  top: "cccp22_7"
  param {
    name: "cccp22_w"
    lr_mult: 0
  }
  param {
    name: "cccp22_b"
    lr_mult: 0
  }
  convolution_param {
    num_output: 96
    kernel_size: 1
    group: 1
    weight_filler {
      type: "gaussian"
      std: 0.1
    }
    bias_filler {
      type: "constant"
      value: 0
    }
  }
}
layer {
  name: "relu_cccp22_7"
  type: "ReLU"
  bottom: "cccp22_7"
  top: "cccp22_7"
}
layer {
  name: "pool2_7"
  type: "Pooling"
  bottom: "cccp22_7"
  top: "pool2_7"
  pooling_param {
    pool: AVE
    kernel_size: 3
    stride: 2
  }
}
layer {
  name: "drop2_7"
  type: "Dropout"
  bottom: "pool2_7"
  top: "pool2_7"
  dropout_param {
    dropout_ratio: 0.5
  }
}
layer {
  name: "conv3_7"
  type: "Convolution"
  bottom: "pool2_7"
  top: "conv3_7"
  param {
    name: "conv3_w"
    lr_mult: 0
  }
  param {
    name: "conv3_b"
    lr_mult: 0
  }
  convolution_param {
    num_output: 128
    pad: 1
    kernel_size: 3
    weight_filler {
      type: "gaussian"
      std: 0.03
    }
    bias_filler {
      type: "constant"
    }
  }
}
layer {
  name: "relu3_7"
  type: "ReLU"
  bottom: "conv3_7"
  top: "conv3_7"
}
layer {
  name: "cccp31_7"
  type: "Convolution"
  bottom: "conv3_7"
  top: "cccp31_7"
  param {
    name: "cccp31_w"
    lr_mult: 0
  }
  param {
    name: "cccp31_b"
    lr_mult: 0
  }
  convolution_param {
    num_output: 128
    kernel_size: 1
    group: 1
    weight_filler {
      type: "gaussian"
      std: 0.1
    }
    bias_filler {
      type: "constant"
      value: 0
    }
  }
}
# -> conv-out: 128 x 5 x 1 x 30 x 30
layer {
  name: "aniprobing-1_8"
  type: "Convolution"
  bottom: "data_8"
  top: "aniprobing-1_8"
  param {
    name: "aniprobing-1_w"
    lr_mult: 0
  }
  param {
    name: "aniprobing-1_b"
    lr_mult: 0
  }
  convolution_param {
    num_output: 5
    axis: 1
    kernel_size: 30
    kernel_size: 1
    kernel_size: 1
    stride: 30
    stride: 1
    stride: 1
    weight_filler {
        type: "gaussian"
        std: 0.25
    }
    bias_filler {
        type: "constant"
        value: 0
    }
  }
}

layer {
  name: "relu-1_8"
  type: "ReLU"
  bottom: "aniprobing-1_8"
  top: "aniprobing-1_8"
}

# -> conv-out: 128 x 1 x 5 x 30 x 30
layer {
  name: "reshape"
  type: "Reshape"
  bottom: "aniprobing-1_8"
  top: "aniprobing-1-rs_8"
  reshape_param {
    shape {
      dim: 0
      dim: 1
      dim: 5
      dim: 30
      dim: 30
    }
  }
}

# -> conv-out: 128 x 5 x 1 x 30 x 30
layer {
  name: "aniprobing-2_8"
  type: "Convolution"
  bottom: "aniprobing-1-rs_8"
  top: "aniprobing-2_8"
  param {
    name: "aniprobing-2_w"
    lr_mult: 0
  }
  param {
    name: "aniprobing-2_b"
    lr_mult: 0
  }
  convolution_param {
    num_output: 5
    axis: 1
    kernel_size: 5
    kernel_size: 1
    kernel_size: 1
    stride: 5
    stride: 1
    stride: 1
    weight_filler {
        type: "gaussian"
        std: 0.45
    }
    bias_filler {
        type: "constant"
        value: 0
    }
  }
}
layer {
  name: "relu-2_8"
  type: "ReLU"
  bottom: "aniprobing-2_8"
  top: "aniprobing-2_8"
}
layer {
  name: "reshape"
  type: "Reshape"
  bottom: "aniprobing-2_8"
  top: "aniprobing-2-rs_8"
  reshape_param {
    shape {
      dim: 0
      dim: 1
      dim: 5
      dim: 30
      dim: 30
    }
  }
}

# -> conv-out: 128 x 1 x 1 x 30 x 30
layer {
  name: "aniprobing-3_8"
  type: "Convolution"
  bottom: "aniprobing-2-rs_8"
  top: "aniprobing-3_8"
  param {
    name: "aniprobing-3_w"
    lr_mult: 0
  }
  param {
    name: "aniprobing-3_b"
    lr_mult: 0
  }
  convolution_param {
    num_output: 1
    axis: 1
    kernel_size: 5
    kernel_size: 1
    kernel_size: 1
    stride: 5
    stride: 1
    stride: 1
    weight_filler {
        type: "gaussian"
        std: 0.63
    }
    bias_filler {
        type: "constant"
        value: 0
    }
  }
}

layer {
  name: "relu-3_8"
  type: "ReLU"
  bottom: "aniprobing-3_8"
  top: "aniprobing-3_8"
}

layer {
  name: "reshape"
  type: "Reshape"
  bottom: "aniprobing-3_8"
  top: "aniprobing-3-rs_8"
  reshape_param {
    shape {
      dim: 0
      dim: 1
      dim: 30
      dim: 30
    }
  }
}
####################
layer {
  name: "conv1_8"
  type: "Convolution"
  bottom: "aniprobing-3-rs_8"
  top: "conv1_8"
  param {
    name: "conv1_w"
    lr_mult: 0
  }
  param {
    name: "conv1_b"
    lr_mult: 0
  }
  convolution_param {
    num_output: 128
    pad: 3
    kernel_size: 5
    weight_filler {
      type: "gaussian"
      std: 0.28
    }
    bias_filler {
      type: "constant"
    }
  }
}
layer {
  name: "relu1_8"
  type: "ReLU"
  bottom: "conv1_8"
  top: "conv1_8"
}
layer {
  name: "cccp11_8"
  type: "Convolution"
;  bottom: "conv1_8"
  top: "cccp11_8"
  param {
    name: "cccp11_w"
    lr_mult: 0
  }
  param {
    name: "cccp11_b"
    lr_mult: 0
  }
  convolution_param {
    num_output: 96
    kernel_size: 1
    group: 1
    weight_filler {
      type: "gaussian"
      std: 0.1
    }
    bias_filler {
      type: "constant"
      value: 0
    }
  }
}
layer {
  name: "relu_cccp11_8"
  type: "ReLU"
  bottom: "cccp11_8"
  top: "cccp11_8"
}
layer {
  name: "cccp12_8"
  type: "Convolution"
  bottom: "cccp11_8"
  top: "cccp12_8"
  param {
    name: "cccp12_w"
    lr_mult: 0
  }
  param {
    name: "cccp12_b"
    lr_mult: 0
  }
  convolution_param {
    num_output: 96
    kernel_size: 1
    group: 1
    weight_filler {
      type: "gaussian"
      std: 0.11
    }
    bias_filler {
      type: "constant"
      value: 0
    }
  }
}
layer {
  name: "relu_cccp12_8"
  type: "ReLU"
  bottom: "cccp12_8"
  top: "cccp12_8"
}
layer {
  name: "pool1_8"
  type: "Pooling"
  bottom: "cccp12_8"
  top: "pool1_8"
  pooling_param {
    pool: MAX
    kernel_size: 3
    stride: 2
  }
}
layer {
  name: "drop1_8"
  type: "Dropout"
  bottom: "pool1_8"
  top: "pool1_8"
  dropout_param {
    dropout_ratio: 0.5
  }
}
layer {
  name: "conv2_8"
  type: "Convolution"
  bottom: "pool1_8"
  top: "conv2_8"
  param {
    name: "conv2_w"
    lr_mult: 0
  }
  param {
    name: "conv2_b"
    lr_mult: 0
  }
  convolution_param {
    num_output: 128
    pad: 2
    kernel_size: 5
    weight_filler {
      type: "gaussian"
      std: 0.03
    }
    bias_filler {
      type: "constant"
    }
  }
}
layer {
  name: "relu2_8"
  type: "ReLU"
  bottom: "conv2_8"
  top: "conv2_8"
}
layer {
  name: "cccp21_8"
  type: "Convolution"
  bottom: "conv2_8"
  top: "cccp21_8"
  param {
    name: "cccp21_w"
    lr_mult: 0
  }
  param {
    name: "cccp21_b"
    lr_mult: 0
  }
  convolution_param {
    num_output: 96
    kernel_size: 1
    group: 1
    weight_filler {
      type: "gaussian"
      std: 0.1
    }
    bias_filler {
      type: "constant"
      value: 0
    }
  }
}
layer {
  name: "relu_cccp21_8"
  type: "ReLU"
  bottom: "cccp21_8"
  top: "cccp21_8"
}
layer {
  name: "cccp22_8"
  type: "Convolution"
  bottom: "cccp21_8"
  top: "cccp22_8"
  param {
    name: "cccp22_w"
    lr_mult: 0
  }
  param {
    name: "cccp22_b"
    lr_mult: 0
  }
  convolution_param {
    num_output: 96
    kernel_size: 1
    group: 1
    weight_filler {
      type: "gaussian"
      std: 0.1
    }
    bias_filler {
      type: "constant"
      value: 0
    }
  }
}
layer {
  name: "relu_cccp22_8"
  type: "ReLU"
  bottom: "cccp22_8"
  top: "cccp22_8"
}
layer {
  name: "pool2_8"
  type: "Pooling"
  bottom: "cccp22_8"
  top: "pool2_8"
  pooling_param {
    pool: AVE
    kernel_size: 3
    stride: 2
  }
}
layer {
  name: "drop2_8"
  type: "Dropout"
  bottom: "pool2_8"
  top: "pool2_8"
  dropout_param {
    dropout_ratio: 0.5
  }
}
layer {
  name: "conv3_8"
  type: "Convolution"
  bottom: "pool2_8"
  top: "conv3_8"
  param {
    name: "conv3_w"
    lr_mult: 0
  }
  param {
    name: "conv3_b"
    lr_mult: 0
  }
  convolution_param {
    num_output: 128
    pad: 1
    kernel_size: 3
    weight_filler {
      type: "gaussian"
      std: 0.03
    }
    bias_filler {
      type: "constant"
    }
  }
}
layer {
  name: "relu3_8"
  type: "ReLU"
  bottom: "conv3_8"
  top: "conv3_8"
}
layer {
  name: "cccp31_8"
  type: "Convolution"
  bottom: "conv3_8"
  top: "cccp31_8"
  param {
    name: "cccp31_w"
    lr_mult: 0
  }
  param {
    name: "cccp31_b"
    lr_mult: 0
  }
  convolution_param {
    num_output: 128
    kernel_size: 1
    group: 1
    weight_filler {
      type: "gaussian"
      std: 0.1
    }
    bias_filler {
      type: "constant"
      value: 0
    }
  }
}
# -> conv-out: 128 x 5 x 1 x 30 x 30
layer {
  name: "aniprobing-1_9"
  type: "Convolution"
  bottom: "data_9"
  top: "aniprobing-1_9"
  param {
    name: "aniprobing-1_w"
    lr_mult: 0
  }
  param {
    name: "aniprobing-1_b"
    lr_mult: 0
  }
  convolution_param {
    num_output: 5
    axis: 1
    kernel_size: 30
    kernel_size: 1
    kernel_size: 1
    stride: 30
    stride: 1
    stride: 1
    weight_filler {
        type: "gaussian"
        std: 0.25
    }
    bias_filler {
        type: "constant"
        value: 0
    }
  }
}

layer {
  name: "relu-1_9"
  type: "ReLU"
  bottom: "aniprobing-1_9"
  top: "aniprobing-1_9"
}

# -> conv-out: 128 x 1 x 5 x 30 x 30
layer {
  name: "reshape"
  type: "Reshape"
  bottom: "aniprobing-1_9"
  top: "aniprobing-1-rs_9"
  reshape_param {
    shape {
      dim: 0
      dim: 1
      dim: 5
      dim: 30
      dim: 30
    }
  }
}

# -> conv-out: 128 x 5 x 1 x 30 x 30
layer {
  name: "aniprobing-2_9"
  type: "Convolution"
  bottom: "aniprobing-1-rs_9"
  top: "aniprobing-2_9"
  param {
    name: "aniprobing-2_w"
    lr_mult: 0
  }
  param {
    name: "aniprobing-2_b"
    lr_mult: 0
  }
  convolution_param {
    num_output: 5
    axis: 1
    kernel_size: 5
    kernel_size: 1
    kernel_size: 1
    stride: 5
    stride: 1
    stride: 1
    weight_filler {
        type: "gaussian"
        std: 0.45
    }
    bias_filler {
        type: "constant"
        value: 0
    }
  }
}
layer {
  name: "relu-2_9"
  type: "ReLU"
  bottom: "aniprobing-2_9"
  top: "aniprobing-2_9"
}
layer {
  name: "reshape"
  type: "Reshape"
  bottom: "aniprobing-2_9"
  top: "aniprobing-2-rs_9"
  reshape_param {
    shape {
      dim: 0
      dim: 1
      dim: 5
      dim: 30
      dim: 30
    }
  }
}

# -> conv-out: 128 x 1 x 1 x 30 x 30
layer {
  name: "aniprobing-3_9"
  type: "Convolution"
  bottom: "aniprobing-2-rs_9"
  top: "aniprobing-3_9"
  param {
    name: "aniprobing-3_w"
    lr_mult: 0
  }
  param {
    name: "aniprobing-3_b"
    lr_mult: 0
  }
  convolution_param {
    num_output: 1
    axis: 1
    kernel_size: 5
    kernel_size: 1
    kernel_size: 1
    stride: 5
    stride: 1
    stride: 1
    weight_filler {
        type: "gaussian"
        std: 0.63
    }
    bias_filler {
        type: "constant"
        value: 0
    }
  }
}

layer {
  name: "relu-3_9"
  type: "ReLU"
  bottom: "aniprobing-3_9"
  top: "aniprobing-3_9"
}

layer {
  name: "reshape"
  type: "Reshape"
  bottom: "aniprobing-3_9"
  top: "aniprobing-3-rs_9"
  reshape_param {
    shape {
      dim: 0
      dim: 1
      dim: 30
      dim: 30
    }
  }
}
####################
layer {
  name: "conv1_9"
  type: "Convolution"
  bottom: "aniprobing-3-rs_9"
  top: "conv1_9"
  param {
    name: "conv1_w"
    lr_mult: 0
  }
  param {
    name: "conv1_b"
    lr_mult: 0
  }
  convolution_param {
    num_output: 128
    pad: 3
    kernel_size: 5
    weight_filler {
      type: "gaussian"
      std: 0.28
    }
    bias_filler {
      type: "constant"
    }
  }
}
layer {
  name: "relu1_9"
  type: "ReLU"
  bottom: "conv1_9"
  top: "conv1_9"
}
layer {
  name: "cccp11_9"
  type: "Convolution"
;  bottom: "conv1_9"
  top: "cccp11_9"
  param {
    name: "cccp11_w"
    lr_mult: 0
  }
  param {
    name: "cccp11_b"
    lr_mult: 0
  }
  convolution_param {
    num_output: 96
    kernel_size: 1
    group: 1
    weight_filler {
      type: "gaussian"
      std: 0.1
    }
    bias_filler {
      type: "constant"
      value: 0
    }
  }
}
layer {
  name: "relu_cccp11_9"
  type: "ReLU"
  bottom: "cccp11_9"
  top: "cccp11_9"
}
layer {
  name: "cccp12_9"
  type: "Convolution"
  bottom: "cccp11_9"
  top: "cccp12_9"
  param {
    name: "cccp12_w"
    lr_mult: 0
  }
  param {
    name: "cccp12_b"
    lr_mult: 0
  }
  convolution_param {
    num_output: 96
    kernel_size: 1
    group: 1
    weight_filler {
      type: "gaussian"
      std: 0.11
    }
    bias_filler {
      type: "constant"
      value: 0
    }
  }
}
layer {
  name: "relu_cccp12_9"
  type: "ReLU"
  bottom: "cccp12_9"
  top: "cccp12_9"
}
layer {
  name: "pool1_9"
  type: "Pooling"
  bottom: "cccp12_9"
  top: "pool1_9"
  pooling_param {
    pool: MAX
    kernel_size: 3
    stride: 2
  }
}
layer {
  name: "drop1_9"
  type: "Dropout"
  bottom: "pool1_9"
  top: "pool1_9"
  dropout_param {
    dropout_ratio: 0.5
  }
}
layer {
  name: "conv2_9"
  type: "Convolution"
  bottom: "pool1_9"
  top: "conv2_9"
  param {
    name: "conv2_w"
    lr_mult: 0
  }
  param {
    name: "conv2_b"
    lr_mult: 0
  }
  convolution_param {
    num_output: 128
    pad: 2
    kernel_size: 5
    weight_filler {
      type: "gaussian"
      std: 0.03
    }
    bias_filler {
      type: "constant"
    }
  }
}
layer {
  name: "relu2_9"
  type: "ReLU"
  bottom: "conv2_9"
  top: "conv2_9"
}
layer {
  name: "cccp21_9"
  type: "Convolution"
  bottom: "conv2_9"
  top: "cccp21_9"
  param {
    name: "cccp21_w"
    lr_mult: 0
  }
  param {
    name: "cccp21_b"
    lr_mult: 0
  }
  convolution_param {
    num_output: 96
    kernel_size: 1
    group: 1
    weight_filler {
      type: "gaussian"
      std: 0.1
    }
    bias_filler {
      type: "constant"
      value: 0
    }
  }
}
layer {
  name: "relu_cccp21_9"
  type: "ReLU"
  bottom: "cccp21_9"
  top: "cccp21_9"
}
layer {
  name: "cccp22_9"
  type: "Convolution"
  bottom: "cccp21_9"
  top: "cccp22_9"
  param {
    name: "cccp22_w"
    lr_mult: 0
  }
  param {
    name: "cccp22_b"
    lr_mult: 0
  }
  convolution_param {
    num_output: 96
    kernel_size: 1
    group: 1
    weight_filler {
      type: "gaussian"
      std: 0.1
    }
    bias_filler {
      type: "constant"
      value: 0
    }
  }
}
layer {
  name: "relu_cccp22_9"
  type: "ReLU"
  bottom: "cccp22_9"
  top: "cccp22_9"
}
layer {
  name: "pool2_9"
  type: "Pooling"
  bottom: "cccp22_9"
  top: "pool2_9"
  pooling_param {
    pool: AVE
    kernel_size: 3
    stride: 2
  }
}
layer {
  name: "drop2_9"
  type: "Dropout"
  bottom: "pool2_9"
  top: "pool2_9"
  dropout_param {
    dropout_ratio: 0.5
  }
}
layer {
  name: "conv3_9"
  type: "Convolution"
  bottom: "pool2_9"
  top: "conv3_9"
  param {
    name: "conv3_w"
    lr_mult: 0
  }
  param {
    name: "conv3_b"
    lr_mult: 0
  }
  convolution_param {
    num_output: 128
    pad: 1
    kernel_size: 3
    weight_filler {
      type: "gaussian"
      std: 0.03
    }
    bias_filler {
      type: "constant"
    }
  }
}
layer {
  name: "relu3_9"
  type: "ReLU"
  bottom: "conv3_9"
  top: "conv3_9"
}
layer {
  name: "cccp31_9"
  type: "Convolution"
  bottom: "conv3_9"
  top: "cccp31_9"
  param {
    name: "cccp31_w"
    lr_mult: 0
  }
  param {
    name: "cccp31_b"
    lr_mult: 0
  }
  convolution_param {
    num_output: 128
    kernel_size: 1
    group: 1
    weight_filler {
      type: "gaussian"
      std: 0.1
    }
    bias_filler {
      type: "constant"
      value: 0
    }
  }
}
# -> conv-out: 128 x 5 x 1 x 30 x 30
layer {
  name: "aniprobing-1_10"
  type: "Convolution"
  bottom: "data_10"
  top: "aniprobing-1_10"
  param {
    name: "aniprobing-1_w"
    lr_mult: 0
  }
  param {
    name: "aniprobing-1_b"
    lr_mult: 0
  }
  convolution_param {
    num_output: 5
    axis: 1
    kernel_size: 30
    kernel_size: 1
    kernel_size: 1
    stride: 30
    stride: 1
    stride: 1
    weight_filler {
        type: "gaussian"
        std: 0.25
    }
    bias_filler {
        type: "constant"
        value: 0
    }
  }
}

layer {
  name: "relu-1_10"
  type: "ReLU"
  bottom: "aniprobing-1_10"
  top: "aniprobing-1_10"
}

# -> conv-out: 128 x 1 x 5 x 30 x 30
layer {
  name: "reshape"
  type: "Reshape"
  bottom: "aniprobing-1_10"
  top: "aniprobing-1-rs_10"
  reshape_param {
    shape {
      dim: 0
      dim: 1
      dim: 5
      dim: 30
      dim: 30
    }
  }
}

# -> conv-out: 128 x 5 x 1 x 30 x 30
layer {
  name: "aniprobing-2_10"
  type: "Convolution"
  bottom: "aniprobing-1-rs_10"
  top: "aniprobing-2_10"
  param {
    name: "aniprobing-2_w"
    lr_mult: 0
  }
  param {
    name: "aniprobing-2_b"
    lr_mult: 0
  }
  convolution_param {
    num_output: 5
    axis: 1
    kernel_size: 5
    kernel_size: 1
    kernel_size: 1
    stride: 5
    stride: 1
    stride: 1
    weight_filler {
        type: "gaussian"
        std: 0.45
    }
    bias_filler {
        type: "constant"
        value: 0
    }
  }
}
layer {
  name: "relu-2_10"
  type: "ReLU"
  bottom: "aniprobing-2_10"
  top: "aniprobing-2_10"
}
layer {
  name: "reshape"
  type: "Reshape"
  bottom: "aniprobing-2_10"
  top: "aniprobing-2-rs_10"
  reshape_param {
    shape {
      dim: 0
      dim: 1
      dim: 5
      dim: 30
      dim: 30
    }
  }
}

# -> conv-out: 128 x 1 x 1 x 30 x 30
layer {
  name: "aniprobing-3_10"
  type: "Convolution"
  bottom: "aniprobing-2-rs_10"
  top: "aniprobing-3_10"
  param {
    name: "aniprobing-3_w"
    lr_mult: 0
  }
  param {
    name: "aniprobing-3_b"
    lr_mult: 0
  }
  convolution_param {
    num_output: 1
    axis: 1
    kernel_size: 5
    kernel_size: 1
    kernel_size: 1
    stride: 5
    stride: 1
    stride: 1
    weight_filler {
        type: "gaussian"
        std: 0.63
    }
    bias_filler {
        type: "constant"
        value: 0
    }
  }
}

layer {
  name: "relu-3_10"
  type: "ReLU"
  bottom: "aniprobing-3_10"
  top: "aniprobing-3_10"
}

layer {
  name: "reshape"
  type: "Reshape"
  bottom: "aniprobing-3_10"
  top: "aniprobing-3-rs_10"
  reshape_param {
    shape {
      dim: 0
      dim: 1
      dim: 30
      dim: 30
    }
  }
}
####################
layer {
  name: "conv1_10"
  type: "Convolution"
  bottom: "aniprobing-3-rs_10"
  top: "conv1_10"
  param {
    name: "conv1_w"
    lr_mult: 0
  }
  param {
    name: "conv1_b"
    lr_mult: 0
  }
  convolution_param {
    num_output: 128
    pad: 3
    kernel_size: 5
    weight_filler {
      type: "gaussian"
      std: 0.28
    }
    bias_filler {
      type: "constant"
    }
  }
}
layer {
  name: "relu1_10"
  type: "ReLU"
  bottom: "conv1_10"
  top: "conv1_10"
}
layer {
  name: "cccp11_10"
  type: "Convolution"
;  bottom: "conv1_10"
  top: "cccp11_10"
  param {
    name: "cccp11_w"
    lr_mult: 0
  }
  param {
    name: "cccp11_b"
    lr_mult: 0
  }
  convolution_param {
    num_output: 96
    kernel_size: 1
    group: 1
    weight_filler {
      type: "gaussian"
      std: 0.1
    }
    bias_filler {
      type: "constant"
      value: 0
    }
  }
}
layer {
  name: "relu_cccp11_10"
  type: "ReLU"
  bottom: "cccp11_10"
  top: "cccp11_10"
}
layer {
  name: "cccp12_10"
  type: "Convolution"
  bottom: "cccp11_10"
  top: "cccp12_10"
  param {
    name: "cccp12_w"
    lr_mult: 0
  }
  param {
    name: "cccp12_b"
    lr_mult: 0
  }
  convolution_param {
    num_output: 96
    kernel_size: 1
    group: 1
    weight_filler {
      type: "gaussian"
      std: 0.11
    }
    bias_filler {
      type: "constant"
      value: 0
    }
  }
}
layer {
  name: "relu_cccp12_10"
  type: "ReLU"
  bottom: "cccp12_10"
  top: "cccp12_10"
}
layer {
  name: "pool1_10"
  type: "Pooling"
  bottom: "cccp12_10"
  top: "pool1_10"
  pooling_param {
    pool: MAX
    kernel_size: 3
    stride: 2
  }
}
layer {
  name: "drop1_10"
  type: "Dropout"
  bottom: "pool1_10"
  top: "pool1_10"
  dropout_param {
    dropout_ratio: 0.5
  }
}
layer {
  name: "conv2_10"
  type: "Convolution"
  bottom: "pool1_10"
  top: "conv2_10"
  param {
    name: "conv2_w"
    lr_mult: 0
  }
  param {
    name: "conv2_b"
    lr_mult: 0
  }
  convolution_param {
    num_output: 128
    pad: 2
    kernel_size: 5
    weight_filler {
      type: "gaussian"
      std: 0.03
    }
    bias_filler {
      type: "constant"
    }
  }
}
layer {
  name: "relu2_10"
  type: "ReLU"
  bottom: "conv2_10"
  top: "conv2_10"
}
layer {
  name: "cccp21_10"
  type: "Convolution"
  bottom: "conv2_10"
  top: "cccp21_10"
  param {
    name: "cccp21_w"
    lr_mult: 0
  }
  param {
    name: "cccp21_b"
    lr_mult: 0
  }
  convolution_param {
    num_output: 96
    kernel_size: 1
    group: 1
    weight_filler {
      type: "gaussian"
      std: 0.1
    }
    bias_filler {
      type: "constant"
      value: 0
    }
  }
}
layer {
  name: "relu_cccp21_10"
  type: "ReLU"
  bottom: "cccp21_10"
  top: "cccp21_10"
}
layer {
  name: "cccp22_10"
  type: "Convolution"
  bottom: "cccp21_10"
  top: "cccp22_10"
  param {
    name: "cccp22_w"
    lr_mult: 0
  }
  param {
    name: "cccp22_b"
    lr_mult: 0
  }
  convolution_param {
    num_output: 96
    kernel_size: 1
    group: 1
    weight_filler {
      type: "gaussian"
      std: 0.1
    }
    bias_filler {
      type: "constant"
      value: 0
    }
  }
}
layer {
  name: "relu_cccp22_10"
  type: "ReLU"
  bottom: "cccp22_10"
  top: "cccp22_10"
}
layer {
  name: "pool2_10"
  type: "Pooling"
  bottom: "cccp22_10"
  top: "pool2_10"
  pooling_param {
    pool: AVE
    kernel_size: 3
    stride: 2
  }
}
layer {
  name: "drop2_10"
  type: "Dropout"
  bottom: "pool2_10"
  top: "pool2_10"
  dropout_param {
    dropout_ratio: 0.5
  }
}
layer {
  name: "conv3_10"
  type: "Convolution"
  bottom: "pool2_10"
  top: "conv3_10"
  param {
    name: "conv3_w"
    lr_mult: 0
  }
  param {
    name: "conv3_b"
    lr_mult: 0
  }
  convolution_param {
    num_output: 128
    pad: 1
    kernel_size: 3
    weight_filler {
      type: "gaussian"
      std: 0.03
    }
    bias_filler {
      type: "constant"
    }
  }
}
layer {
  name: "relu3_10"
  type: "ReLU"
  bottom: "conv3_10"
  top: "conv3_10"
}
layer {
  name: "cccp31_10"
  type: "Convolution"
  bottom: "conv3_10"
  top: "cccp31_10"
  param {
    name: "cccp31_w"
    lr_mult: 0
  }
  param {
    name: "cccp31_b"
    lr_mult: 0
  }
  convolution_param {
    num_output: 128
    kernel_size: 1
    group: 1
    weight_filler {
      type: "gaussian"
      std: 0.1
    }
    bias_filler {
      type: "constant"
      value: 0
    }
  }
}
# -> conv-out: 128 x 5 x 1 x 30 x 30
layer {
  name: "aniprobing-1_11"
  type: "Convolution"
  bottom: "data_11"
  top: "aniprobing-1_11"
  param {
    name: "aniprobing-1_w"
    lr_mult: 0
  }
  param {
    name: "aniprobing-1_b"
    lr_mult: 0
  }
  convolution_param {
    num_output: 5
    axis: 1
    kernel_size: 30
    kernel_size: 1
    kernel_size: 1
    stride: 30
    stride: 1
    stride: 1
    weight_filler {
        type: "gaussian"
        std: 0.25
    }
    bias_filler {
        type: "constant"
        value: 0
    }
  }
}

layer {
  name: "relu-1_11"
  type: "ReLU"
  bottom: "aniprobing-1_11"
  top: "aniprobing-1_11"
}

# -> conv-out: 128 x 1 x 5 x 30 x 30
layer {
  name: "reshape"
  type: "Reshape"
  bottom: "aniprobing-1_11"
  top: "aniprobing-1-rs_11"
  reshape_param {
    shape {
      dim: 0
      dim: 1
      dim: 5
      dim: 30
      dim: 30
    }
  }
}

# -> conv-out: 128 x 5 x 1 x 30 x 30
layer {
  name: "aniprobing-2_11"
  type: "Convolution"
  bottom: "aniprobing-1-rs_11"
  top: "aniprobing-2_11"
  param {
    name: "aniprobing-2_w"
    lr_mult: 0
  }
  param {
    name: "aniprobing-2_b"
    lr_mult: 0
  }
  convolution_param {
    num_output: 5
    axis: 1
    kernel_size: 5
    kernel_size: 1
    kernel_size: 1
    stride: 5
    stride: 1
    stride: 1
    weight_filler {
        type: "gaussian"
        std: 0.45
    }
    bias_filler {
        type: "constant"
        value: 0
    }
  }
}
layer {
  name: "relu-2_11"
  type: "ReLU"
  bottom: "aniprobing-2_11"
  top: "aniprobing-2_11"
}
layer {
  name: "reshape"
  type: "Reshape"
  bottom: "aniprobing-2_11"
  top: "aniprobing-2-rs_11"
  reshape_param {
    shape {
      dim: 0
      dim: 1
      dim: 5
      dim: 30
      dim: 30
    }
  }
}

# -> conv-out: 128 x 1 x 1 x 30 x 30
layer {
  name: "aniprobing-3_11"
  type: "Convolution"
  bottom: "aniprobing-2-rs_11"
  top: "aniprobing-3_11"
  param {
    name: "aniprobing-3_w"
    lr_mult: 0
  }
  param {
    name: "aniprobing-3_b"
    lr_mult: 0
  }
  convolution_param {
    num_output: 1
    axis: 1
    kernel_size: 5
    kernel_size: 1
    kernel_size: 1
    stride: 5
    stride: 1
    stride: 1
    weight_filler {
        type: "gaussian"
        std: 0.63
    }
    bias_filler {
        type: "constant"
        value: 0
    }
  }
}

layer {
  name: "relu-3_11"
  type: "ReLU"
  bottom: "aniprobing-3_11"
  top: "aniprobing-3_11"
}

layer {
  name: "reshape"
  type: "Reshape"
  bottom: "aniprobing-3_11"
  top: "aniprobing-3-rs_11"
  reshape_param {
    shape {
      dim: 0
      dim: 1
      dim: 30
      dim: 30
    }
  }
}
####################
layer {
  name: "conv1_11"
  type: "Convolution"
  bottom: "aniprobing-3-rs_11"
  top: "conv1_11"
  param {
    name: "conv1_w"
    lr_mult: 0
  }
  param {
    name: "conv1_b"
    lr_mult: 0
  }
  convolution_param {
    num_output: 128
    pad: 3
    kernel_size: 5
    weight_filler {
      type: "gaussian"
      std: 0.28
    }
    bias_filler {
      type: "constant"
    }
  }
}
layer {
  name: "relu1_11"
  type: "ReLU"
  bottom: "conv1_11"
  top: "conv1_11"
}
layer {
  name: "cccp11_11"
  type: "Convolution"
;  bottom: "conv1_11"
  top: "cccp11_11"
  param {
    name: "cccp11_w"
    lr_mult: 0
  }
  param {
    name: "cccp11_b"
    lr_mult: 0
  }
  convolution_param {
    num_output: 96
    kernel_size: 1
    group: 1
    weight_filler {
      type: "gaussian"
      std: 0.1
    }
    bias_filler {
      type: "constant"
      value: 0
    }
  }
}
layer {
  name: "relu_cccp11_11"
  type: "ReLU"
  bottom: "cccp11_11"
  top: "cccp11_11"
}
layer {
  name: "cccp12_11"
  type: "Convolution"
  bottom: "cccp11_11"
  top: "cccp12_11"
  param {
    name: "cccp12_w"
    lr_mult: 0
  }
  param {
    name: "cccp12_b"
    lr_mult: 0
  }
  convolution_param {
    num_output: 96
    kernel_size: 1
    group: 1
    weight_filler {
      type: "gaussian"
      std: 0.11
    }
    bias_filler {
      type: "constant"
      value: 0
    }
  }
}
layer {
  name: "relu_cccp12_11"
  type: "ReLU"
  bottom: "cccp12_11"
  top: "cccp12_11"
}
layer {
  name: "pool1_11"
  type: "Pooling"
  bottom: "cccp12_11"
  top: "pool1_11"
  pooling_param {
    pool: MAX
    kernel_size: 3
    stride: 2
  }
}
layer {
  name: "drop1_11"
  type: "Dropout"
  bottom: "pool1_11"
  top: "pool1_11"
  dropout_param {
    dropout_ratio: 0.5
  }
}
layer {
  name: "conv2_11"
  type: "Convolution"
  bottom: "pool1_11"
  top: "conv2_11"
  param {
    name: "conv2_w"
    lr_mult: 0
  }
  param {
    name: "conv2_b"
    lr_mult: 0
  }
  convolution_param {
    num_output: 128
    pad: 2
    kernel_size: 5
    weight_filler {
      type: "gaussian"
      std: 0.03
    }
    bias_filler {
      type: "constant"
    }
  }
}
layer {
  name: "relu2_11"
  type: "ReLU"
  bottom: "conv2_11"
  top: "conv2_11"
}
layer {
  name: "cccp21_11"
  type: "Convolution"
  bottom: "conv2_11"
  top: "cccp21_11"
  param {
    name: "cccp21_w"
    lr_mult: 0
  }
  param {
    name: "cccp21_b"
    lr_mult: 0
  }
  convolution_param {
    num_output: 96
    kernel_size: 1
    group: 1
    weight_filler {
      type: "gaussian"
      std: 0.1
    }
    bias_filler {
      type: "constant"
      value: 0
    }
  }
}
layer {
  name: "relu_cccp21_11"
  type: "ReLU"
  bottom: "cccp21_11"
  top: "cccp21_11"
}
layer {
  name: "cccp22_11"
  type: "Convolution"
  bottom: "cccp21_11"
  top: "cccp22_11"
  param {
    name: "cccp22_w"
    lr_mult: 0
  }
  param {
    name: "cccp22_b"
    lr_mult: 0
  }
  convolution_param {
    num_output: 96
    kernel_size: 1
    group: 1
    weight_filler {
      type: "gaussian"
      std: 0.1
    }
    bias_filler {
      type: "constant"
      value: 0
    }
  }
}
layer {
  name: "relu_cccp22_11"
  type: "ReLU"
  bottom: "cccp22_11"
  top: "cccp22_11"
}
layer {
  name: "pool2_11"
  type: "Pooling"
  bottom: "cccp22_11"
  top: "pool2_11"
  pooling_param {
    pool: AVE
    kernel_size: 3
    stride: 2
  }
}
layer {
  name: "drop2_11"
  type: "Dropout"
  bottom: "pool2_11"
  top: "pool2_11"
  dropout_param {
    dropout_ratio: 0.5
  }
}
layer {
  name: "conv3_11"
  type: "Convolution"
  bottom: "pool2_11"
  top: "conv3_11"
  param {
    name: "conv3_w"
    lr_mult: 0
  }
  param {
    name: "conv3_b"
    lr_mult: 0
  }
  convolution_param {
    num_output: 128
    pad: 1
    kernel_size: 3
    weight_filler {
      type: "gaussian"
      std: 0.03
    }
    bias_filler {
      type: "constant"
    }
  }
}
layer {
  name: "relu3_11"
  type: "ReLU"
  bottom: "conv3_11"
  top: "conv3_11"
}
layer {
  name: "cccp31_11"
  type: "Convolution"
  bottom: "conv3_11"
  top: "cccp31_11"
  param {
    name: "cccp31_w"
    lr_mult: 0
  }
  param {
    name: "cccp31_b"
    lr_mult: 0
  }
  convolution_param {
    num_output: 128
    kernel_size: 1
    group: 1
    weight_filler {
      type: "gaussian"
      std: 0.1
    }
    bias_filler {
      type: "constant"
      value: 0
    }
  }
}
# -> conv-out: 128 x 5 x 1 x 30 x 30
layer {
  name: "aniprobing-1_12"
  type: "Convolution"
  bottom: "data_12"
  top: "aniprobing-1_12"
  param {
    name: "aniprobing-1_w"
    lr_mult: 0
  }
  param {
    name: "aniprobing-1_b"
    lr_mult: 0
  }
  convolution_param {
    num_output: 5
    axis: 1
    kernel_size: 30
    kernel_size: 1
    kernel_size: 1
    stride: 30
    stride: 1
    stride: 1
    weight_filler {
        type: "gaussian"
        std: 0.25
    }
    bias_filler {
        type: "constant"
        value: 0
    }
  }
}

layer {
  name: "relu-1_12"
  type: "ReLU"
  bottom: "aniprobing-1_12"
  top: "aniprobing-1_12"
}

# -> conv-out: 128 x 1 x 5 x 30 x 30
layer {
  name: "reshape"
  type: "Reshape"
  bottom: "aniprobing-1_12"
  top: "aniprobing-1-rs_12"
  reshape_param {
    shape {
      dim: 0
      dim: 1
      dim: 5
      dim: 30
      dim: 30
    }
  }
}

# -> conv-out: 128 x 5 x 1 x 30 x 30
layer {
  name: "aniprobing-2_12"
  type: "Convolution"
  bottom: "aniprobing-1-rs_12"
  top: "aniprobing-2_12"
  param {
    name: "aniprobing-2_w"
    lr_mult: 0
  }
  param {
    name: "aniprobing-2_b"
    lr_mult: 0
  }
  convolution_param {
    num_output: 5
    axis: 1
    kernel_size: 5
    kernel_size: 1
    kernel_size: 1
    stride: 5
    stride: 1
    stride: 1
    weight_filler {
        type: "gaussian"
        std: 0.45
    }
    bias_filler {
        type: "constant"
        value: 0
    }
  }
}
layer {
  name: "relu-2_12"
  type: "ReLU"
  bottom: "aniprobing-2_12"
  top: "aniprobing-2_12"
}
layer {
  name: "reshape"
  type: "Reshape"
  bottom: "aniprobing-2_12"
  top: "aniprobing-2-rs_12"
  reshape_param {
    shape {
      dim: 0
      dim: 1
      dim: 5
      dim: 30
      dim: 30
    }
  }
}

# -> conv-out: 128 x 1 x 1 x 30 x 30
layer {
  name: "aniprobing-3_12"
  type: "Convolution"
  bottom: "aniprobing-2-rs_12"
  top: "aniprobing-3_12"
  param {
    name: "aniprobing-3_w"
    lr_mult: 0
  }
  param {
    name: "aniprobing-3_b"
    lr_mult: 0
  }
  convolution_param {
    num_output: 1
    axis: 1
    kernel_size: 5
    kernel_size: 1
    kernel_size: 1
    stride: 5
    stride: 1
    stride: 1
    weight_filler {
        type: "gaussian"
        std: 0.63
    }
    bias_filler {
        type: "constant"
        value: 0
    }
  }
}

layer {
  name: "relu-3_12"
  type: "ReLU"
  bottom: "aniprobing-3_12"
  top: "aniprobing-3_12"
}

layer {
  name: "reshape"
  type: "Reshape"
  bottom: "aniprobing-3_12"
  top: "aniprobing-3-rs_12"
  reshape_param {
    shape {
      dim: 0
      dim: 1
      dim: 30
      dim: 30
    }
  }
}
####################
layer {
  name: "conv1_12"
  type: "Convolution"
  bottom: "aniprobing-3-rs_12"
  top: "conv1_12"
  param {
    name: "conv1_w"
    lr_mult: 0
  }
  param {
    name: "conv1_b"
    lr_mult: 0
  }
  convolution_param {
    num_output: 128
    pad: 3
    kernel_size: 5
    weight_filler {
      type: "gaussian"
      std: 0.28
    }
    bias_filler {
      type: "constant"
    }
  }
}
layer {
  name: "relu1_12"
  type: "ReLU"
  bottom: "conv1_12"
  top: "conv1_12"
}
layer {
  name: "cccp11_12"
  type: "Convolution"
;  bottom: "conv1_12"
  top: "cccp11_12"
  param {
    name: "cccp11_w"
    lr_mult: 0
  }
  param {
    name: "cccp11_b"
    lr_mult: 0
  }
  convolution_param {
    num_output: 96
    kernel_size: 1
    group: 1
    weight_filler {
      type: "gaussian"
      std: 0.1
    }
    bias_filler {
      type: "constant"
      value: 0
    }
  }
}
layer {
  name: "relu_cccp11_12"
  type: "ReLU"
  bottom: "cccp11_12"
  top: "cccp11_12"
}
layer {
  name: "cccp12_12"
  type: "Convolution"
  bottom: "cccp11_12"
  top: "cccp12_12"
  param {
    name: "cccp12_w"
    lr_mult: 0
  }
  param {
    name: "cccp12_b"
    lr_mult: 0
  }
  convolution_param {
    num_output: 96
    kernel_size: 1
    group: 1
    weight_filler {
      type: "gaussian"
      std: 0.11
    }
    bias_filler {
      type: "constant"
      value: 0
    }
  }
}
layer {
  name: "relu_cccp12_12"
  type: "ReLU"
  bottom: "cccp12_12"
  top: "cccp12_12"
}
layer {
  name: "pool1_12"
  type: "Pooling"
  bottom: "cccp12_12"
  top: "pool1_12"
  pooling_param {
    pool: MAX
    kernel_size: 3
    stride: 2
  }
}
layer {
  name: "drop1_12"
  type: "Dropout"
  bottom: "pool1_12"
  top: "pool1_12"
  dropout_param {
    dropout_ratio: 0.5
  }
}
layer {
  name: "conv2_12"
  type: "Convolution"
  bottom: "pool1_12"
  top: "conv2_12"
  param {
    name: "conv2_w"
    lr_mult: 0
  }
  param {
    name: "conv2_b"
    lr_mult: 0
  }
  convolution_param {
    num_output: 128
    pad: 2
    kernel_size: 5
    weight_filler {
      type: "gaussian"
      std: 0.03
    }
    bias_filler {
      type: "constant"
    }
  }
}
layer {
  name: "relu2_12"
  type: "ReLU"
  bottom: "conv2_12"
  top: "conv2_12"
}
layer {
  name: "cccp21_12"
  type: "Convolution"
  bottom: "conv2_12"
  top: "cccp21_12"
  param {
    name: "cccp21_w"
    lr_mult: 0
  }
  param {
    name: "cccp21_b"
    lr_mult: 0
  }
  convolution_param {
    num_output: 96
    kernel_size: 1
    group: 1
    weight_filler {
      type: "gaussian"
      std: 0.1
    }
    bias_filler {
      type: "constant"
      value: 0
    }
  }
}
layer {
  name: "relu_cccp21_12"
  type: "ReLU"
  bottom: "cccp21_12"
  top: "cccp21_12"
}
layer {
  name: "cccp22_12"
  type: "Convolution"
  bottom: "cccp21_12"
  top: "cccp22_12"
  param {
    name: "cccp22_w"
    lr_mult: 0
  }
  param {
    name: "cccp22_b"
    lr_mult: 0
  }
  convolution_param {
    num_output: 96
    kernel_size: 1
    group: 1
    weight_filler {
      type: "gaussian"
      std: 0.1
    }
    bias_filler {
      type: "constant"
      value: 0
    }
  }
}
layer {
  name: "relu_cccp22_12"
  type: "ReLU"
  bottom: "cccp22_12"
  top: "cccp22_12"
}
layer {
  name: "pool2_12"
  type: "Pooling"
  bottom: "cccp22_12"
  top: "pool2_12"
  pooling_param {
    pool: AVE
    kernel_size: 3
    stride: 2
  }
}
layer {
  name: "drop2_12"
  type: "Dropout"
  bottom: "pool2_12"
  top: "pool2_12"
  dropout_param {
    dropout_ratio: 0.5
  }
}
layer {
  name: "conv3_12"
  type: "Convolution"
  bottom: "pool2_12"
  top: "conv3_12"
  param {
    name: "conv3_w"
    lr_mult: 0
  }
  param {
    name: "conv3_b"
    lr_mult: 0
  }
  convolution_param {
    num_output: 128
    pad: 1
    kernel_size: 3
    weight_filler {
      type: "gaussian"
      std: 0.03
    }
    bias_filler {
      type: "constant"
    }
  }
}
layer {
  name: "relu3_12"
  type: "ReLU"
  bottom: "conv3_12"
  top: "conv3_12"
}
layer {
  name: "cccp31_12"
  type: "Convolution"
  bottom: "conv3_12"
  top: "cccp31_12"
  param {
    name: "cccp31_w"
    lr_mult: 0
  }
  param {
    name: "cccp31_b"
    lr_mult: 0
  }
  convolution_param {
    num_output: 128
    kernel_size: 1
    group: 1
    weight_filler {
      type: "gaussian"
      std: 0.1
    }
    bias_filler {
      type: "constant"
      value: 0
    }
  }
}
# -> conv-out: 128 x 5 x 1 x 30 x 30
layer {
  name: "aniprobing-1_13"
  type: "Convolution"
  bottom: "data_13"
  top: "aniprobing-1_13"
  param {
    name: "aniprobing-1_w"
    lr_mult: 0
  }
  param {
    name: "aniprobing-1_b"
    lr_mult: 0
  }
  convolution_param {
    num_output: 5
    axis: 1
    kernel_size: 30
    kernel_size: 1
    kernel_size: 1
    stride: 30
    stride: 1
    stride: 1
    weight_filler {
        type: "gaussian"
        std: 0.25
    }
    bias_filler {
        type: "constant"
        value: 0
    }
  }
}

layer {
  name: "relu-1_13"
  type: "ReLU"
  bottom: "aniprobing-1_13"
  top: "aniprobing-1_13"
}

# -> conv-out: 128 x 1 x 5 x 30 x 30
layer {
  name: "reshape"
  type: "Reshape"
  bottom: "aniprobing-1_13"
  top: "aniprobing-1-rs_13"
  reshape_param {
    shape {
      dim: 0
      dim: 1
      dim: 5
      dim: 30
      dim: 30
    }
  }
}

# -> conv-out: 128 x 5 x 1 x 30 x 30
layer {
  name: "aniprobing-2_13"
  type: "Convolution"
  bottom: "aniprobing-1-rs_13"
  top: "aniprobing-2_13"
  param {
    name: "aniprobing-2_w"
    lr_mult: 0
  }
  param {
    name: "aniprobing-2_b"
    lr_mult: 0
  }
  convolution_param {
    num_output: 5
    axis: 1
    kernel_size: 5
    kernel_size: 1
    kernel_size: 1
    stride: 5
    stride: 1
    stride: 1
    weight_filler {
        type: "gaussian"
        std: 0.45
    }
    bias_filler {
        type: "constant"
        value: 0
    }
  }
}
layer {
  name: "relu-2_13"
  type: "ReLU"
  bottom: "aniprobing-2_13"
  top: "aniprobing-2_13"
}
layer {
  name: "reshape"
  type: "Reshape"
  bottom: "aniprobing-2_13"
  top: "aniprobing-2-rs_13"
  reshape_param {
    shape {
      dim: 0
      dim: 1
      dim: 5
      dim: 30
      dim: 30
    }
  }
}

# -> conv-out: 128 x 1 x 1 x 30 x 30
layer {
  name: "aniprobing-3_13"
  type: "Convolution"
  bottom: "aniprobing-2-rs_13"
  top: "aniprobing-3_13"
  param {
    name: "aniprobing-3_w"
    lr_mult: 0
  }
  param {
    name: "aniprobing-3_b"
    lr_mult: 0
  }
  convolution_param {
    num_output: 1
    axis: 1
    kernel_size: 5
    kernel_size: 1
    kernel_size: 1
    stride: 5
    stride: 1
    stride: 1
    weight_filler {
        type: "gaussian"
        std: 0.63
    }
    bias_filler {
        type: "constant"
        value: 0
    }
  }
}

layer {
  name: "relu-3_13"
  type: "ReLU"
  bottom: "aniprobing-3_13"
  top: "aniprobing-3_13"
}

layer {
  name: "reshape"
  type: "Reshape"
  bottom: "aniprobing-3_13"
  top: "aniprobing-3-rs_13"
  reshape_param {
    shape {
      dim: 0
      dim: 1
      dim: 30
      dim: 30
    }
  }
}
####################
layer {
  name: "conv1_13"
  type: "Convolution"
  bottom: "aniprobing-3-rs_13"
  top: "conv1_13"
  param {
    name: "conv1_w"
    lr_mult: 0
  }
  param {
    name: "conv1_b"
    lr_mult: 0
  }
  convolution_param {
    num_output: 128
    pad: 3
    kernel_size: 5
    weight_filler {
      type: "gaussian"
      std: 0.28
    }
    bias_filler {
      type: "constant"
    }
  }
}
layer {
  name: "relu1_13"
  type: "ReLU"
  bottom: "conv1_13"
  top: "conv1_13"
}
layer {
  name: "cccp11_13"
  type: "Convolution"
;  bottom: "conv1_13"
  top: "cccp11_13"
  param {
    name: "cccp11_w"
    lr_mult: 0
  }
  param {
    name: "cccp11_b"
    lr_mult: 0
  }
  convolution_param {
    num_output: 96
    kernel_size: 1
    group: 1
    weight_filler {
      type: "gaussian"
      std: 0.1
    }
    bias_filler {
      type: "constant"
      value: 0
    }
  }
}
layer {
  name: "relu_cccp11_13"
  type: "ReLU"
  bottom: "cccp11_13"
  top: "cccp11_13"
}
layer {
  name: "cccp12_13"
  type: "Convolution"
  bottom: "cccp11_13"
  top: "cccp12_13"
  param {
    name: "cccp12_w"
    lr_mult: 0
  }
  param {
    name: "cccp12_b"
    lr_mult: 0
  }
  convolution_param {
    num_output: 96
    kernel_size: 1
    group: 1
    weight_filler {
      type: "gaussian"
      std: 0.11
    }
    bias_filler {
      type: "constant"
      value: 0
    }
  }
}
layer {
  name: "relu_cccp12_13"
  type: "ReLU"
  bottom: "cccp12_13"
  top: "cccp12_13"
}
layer {
  name: "pool1_13"
  type: "Pooling"
  bottom: "cccp12_13"
  top: "pool1_13"
  pooling_param {
    pool: MAX
    kernel_size: 3
    stride: 2
  }
}
layer {
  name: "drop1_13"
  type: "Dropout"
  bottom: "pool1_13"
  top: "pool1_13"
  dropout_param {
    dropout_ratio: 0.5
  }
}
layer {
  name: "conv2_13"
  type: "Convolution"
  bottom: "pool1_13"
  top: "conv2_13"
  param {
    name: "conv2_w"
    lr_mult: 0
  }
  param {
    name: "conv2_b"
    lr_mult: 0
  }
  convolution_param {
    num_output: 128
    pad: 2
    kernel_size: 5
    weight_filler {
      type: "gaussian"
      std: 0.03
    }
    bias_filler {
      type: "constant"
    }
  }
}
layer {
  name: "relu2_13"
  type: "ReLU"
  bottom: "conv2_13"
  top: "conv2_13"
}
layer {
  name: "cccp21_13"
  type: "Convolution"
  bottom: "conv2_13"
  top: "cccp21_13"
  param {
    name: "cccp21_w"
    lr_mult: 0
  }
  param {
    name: "cccp21_b"
    lr_mult: 0
  }
  convolution_param {
    num_output: 96
    kernel_size: 1
    group: 1
    weight_filler {
      type: "gaussian"
      std: 0.1
    }
    bias_filler {
      type: "constant"
      value: 0
    }
  }
}
layer {
  name: "relu_cccp21_13"
  type: "ReLU"
  bottom: "cccp21_13"
  top: "cccp21_13"
}
layer {
  name: "cccp22_13"
  type: "Convolution"
  bottom: "cccp21_13"
  top: "cccp22_13"
  param {
    name: "cccp22_w"
    lr_mult: 0
  }
  param {
    name: "cccp22_b"
    lr_mult: 0
  }
  convolution_param {
    num_output: 96
    kernel_size: 1
    group: 1
    weight_filler {
      type: "gaussian"
      std: 0.1
    }
    bias_filler {
      type: "constant"
      value: 0
    }
  }
}
layer {
  name: "relu_cccp22_13"
  type: "ReLU"
  bottom: "cccp22_13"
  top: "cccp22_13"
}
layer {
  name: "pool2_13"
  type: "Pooling"
  bottom: "cccp22_13"
  top: "pool2_13"
  pooling_param {
    pool: AVE
    kernel_size: 3
    stride: 2
  }
}
layer {
  name: "drop2_13"
  type: "Dropout"
  bottom: "pool2_13"
  top: "pool2_13"
  dropout_param {
    dropout_ratio: 0.5
  }
}
layer {
  name: "conv3_13"
  type: "Convolution"
  bottom: "pool2_13"
  top: "conv3_13"
  param {
    name: "conv3_w"
    lr_mult: 0
  }
  param {
    name: "conv3_b"
    lr_mult: 0
  }
  convolution_param {
    num_output: 128
    pad: 1
    kernel_size: 3
    weight_filler {
      type: "gaussian"
      std: 0.03
    }
    bias_filler {
      type: "constant"
    }
  }
}
layer {
  name: "relu3_13"
  type: "ReLU"
  bottom: "conv3_13"
  top: "conv3_13"
}
layer {
  name: "cccp31_13"
  type: "Convolution"
  bottom: "conv3_13"
  top: "cccp31_13"
  param {
    name: "cccp31_w"
    lr_mult: 0
  }
  param {
    name: "cccp31_b"
    lr_mult: 0
  }
  convolution_param {
    num_output: 128
    kernel_size: 1
    group: 1
    weight_filler {
      type: "gaussian"
      std: 0.1
    }
    bias_filler {
      type: "constant"
      value: 0
    }
  }
}
# -> conv-out: 128 x 5 x 1 x 30 x 30
layer {
  name: "aniprobing-1_14"
  type: "Convolution"
  bottom: "data_14"
  top: "aniprobing-1_14"
  param {
    name: "aniprobing-1_w"
    lr_mult: 0
  }
  param {
    name: "aniprobing-1_b"
    lr_mult: 0
  }
  convolution_param {
    num_output: 5
    axis: 1
    kernel_size: 30
    kernel_size: 1
    kernel_size: 1
    stride: 30
    stride: 1
    stride: 1
    weight_filler {
        type: "gaussian"
        std: 0.25
    }
    bias_filler {
        type: "constant"
        value: 0
    }
  }
}

layer {
  name: "relu-1_14"
  type: "ReLU"
  bottom: "aniprobing-1_14"
  top: "aniprobing-1_14"
}

# -> conv-out: 128 x 1 x 5 x 30 x 30
layer {
  name: "reshape"
  type: "Reshape"
  bottom: "aniprobing-1_14"
  top: "aniprobing-1-rs_14"
  reshape_param {
    shape {
      dim: 0
      dim: 1
      dim: 5
      dim: 30
      dim: 30
    }
  }
}

# -> conv-out: 128 x 5 x 1 x 30 x 30
layer {
  name: "aniprobing-2_14"
  type: "Convolution"
  bottom: "aniprobing-1-rs_14"
  top: "aniprobing-2_14"
  param {
    name: "aniprobing-2_w"
    lr_mult: 0
  }
  param {
    name: "aniprobing-2_b"
    lr_mult: 0
  }
  convolution_param {
    num_output: 5
    axis: 1
    kernel_size: 5
    kernel_size: 1
    kernel_size: 1
    stride: 5
    stride: 1
    stride: 1
    weight_filler {
        type: "gaussian"
        std: 0.45
    }
    bias_filler {
        type: "constant"
        value: 0
    }
  }
}
layer {
  name: "relu-2_14"
  type: "ReLU"
  bottom: "aniprobing-2_14"
  top: "aniprobing-2_14"
}
layer {
  name: "reshape"
  type: "Reshape"
  bottom: "aniprobing-2_14"
  top: "aniprobing-2-rs_14"
  reshape_param {
    shape {
      dim: 0
      dim: 1
      dim: 5
      dim: 30
      dim: 30
    }
  }
}

# -> conv-out: 128 x 1 x 1 x 30 x 30
layer {
  name: "aniprobing-3_14"
  type: "Convolution"
  bottom: "aniprobing-2-rs_14"
  top: "aniprobing-3_14"
  param {
    name: "aniprobing-3_w"
    lr_mult: 0
  }
  param {
    name: "aniprobing-3_b"
    lr_mult: 0
  }
  convolution_param {
    num_output: 1
    axis: 1
    kernel_size: 5
    kernel_size: 1
    kernel_size: 1
    stride: 5
    stride: 1
    stride: 1
    weight_filler {
        type: "gaussian"
        std: 0.63
    }
    bias_filler {
        type: "constant"
        value: 0
    }
  }
}

layer {
  name: "relu-3_14"
  type: "ReLU"
  bottom: "aniprobing-3_14"
  top: "aniprobing-3_14"
}

layer {
  name: "reshape"
  type: "Reshape"
  bottom: "aniprobing-3_14"
  top: "aniprobing-3-rs_14"
  reshape_param {
    shape {
      dim: 0
      dim: 1
      dim: 30
      dim: 30
    }
  }
}
####################
layer {
  name: "conv1_14"
  type: "Convolution"
  bottom: "aniprobing-3-rs_14"
  top: "conv1_14"
  param {
    name: "conv1_w"
    lr_mult: 0
  }
  param {
    name: "conv1_b"
    lr_mult: 0
  }
  convolution_param {
    num_output: 128
    pad: 3
    kernel_size: 5
    weight_filler {
      type: "gaussian"
      std: 0.28
    }
    bias_filler {
      type: "constant"
    }
  }
}
layer {
  name: "relu1_14"
  type: "ReLU"
  bottom: "conv1_14"
  top: "conv1_14"
}
layer {
  name: "cccp11_14"
  type: "Convolution"
;  bottom: "conv1_14"
  top: "cccp11_14"
  param {
    name: "cccp11_w"
    lr_mult: 0
  }
  param {
    name: "cccp11_b"
    lr_mult: 0
  }
  convolution_param {
    num_output: 96
    kernel_size: 1
    group: 1
    weight_filler {
      type: "gaussian"
      std: 0.1
    }
    bias_filler {
      type: "constant"
      value: 0
    }
  }
}
layer {
  name: "relu_cccp11_14"
  type: "ReLU"
  bottom: "cccp11_14"
  top: "cccp11_14"
}
layer {
  name: "cccp12_14"
  type: "Convolution"
  bottom: "cccp11_14"
  top: "cccp12_14"
  param {
    name: "cccp12_w"
    lr_mult: 0
  }
  param {
    name: "cccp12_b"
    lr_mult: 0
  }
  convolution_param {
    num_output: 96
    kernel_size: 1
    group: 1
    weight_filler {
      type: "gaussian"
      std: 0.11
    }
    bias_filler {
      type: "constant"
      value: 0
    }
  }
}
layer {
  name: "relu_cccp12_14"
  type: "ReLU"
  bottom: "cccp12_14"
  top: "cccp12_14"
}
layer {
  name: "pool1_14"
  type: "Pooling"
  bottom: "cccp12_14"
  top: "pool1_14"
  pooling_param {
    pool: MAX
    kernel_size: 3
    stride: 2
  }
}
layer {
  name: "drop1_14"
  type: "Dropout"
  bottom: "pool1_14"
  top: "pool1_14"
  dropout_param {
    dropout_ratio: 0.5
  }
}
layer {
  name: "conv2_14"
  type: "Convolution"
  bottom: "pool1_14"
  top: "conv2_14"
  param {
    name: "conv2_w"
    lr_mult: 0
  }
  param {
    name: "conv2_b"
    lr_mult: 0
  }
  convolution_param {
    num_output: 128
    pad: 2
    kernel_size: 5
    weight_filler {
      type: "gaussian"
      std: 0.03
    }
    bias_filler {
      type: "constant"
    }
  }
}
layer {
  name: "relu2_14"
  type: "ReLU"
  bottom: "conv2_14"
  top: "conv2_14"
}
layer {
  name: "cccp21_14"
  type: "Convolution"
  bottom: "conv2_14"
  top: "cccp21_14"
  param {
    name: "cccp21_w"
    lr_mult: 0
  }
  param {
    name: "cccp21_b"
    lr_mult: 0
  }
  convolution_param {
    num_output: 96
    kernel_size: 1
    group: 1
    weight_filler {
      type: "gaussian"
      std: 0.1
    }
    bias_filler {
      type: "constant"
      value: 0
    }
  }
}
layer {
  name: "relu_cccp21_14"
  type: "ReLU"
  bottom: "cccp21_14"
  top: "cccp21_14"
}
layer {
  name: "cccp22_14"
  type: "Convolution"
  bottom: "cccp21_14"
  top: "cccp22_14"
  param {
    name: "cccp22_w"
    lr_mult: 0
  }
  param {
    name: "cccp22_b"
    lr_mult: 0
  }
  convolution_param {
    num_output: 96
    kernel_size: 1
    group: 1
    weight_filler {
      type: "gaussian"
      std: 0.1
    }
    bias_filler {
      type: "constant"
      value: 0
    }
  }
}
layer {
  name: "relu_cccp22_14"
  type: "ReLU"
  bottom: "cccp22_14"
  top: "cccp22_14"
}
layer {
  name: "pool2_14"
  type: "Pooling"
  bottom: "cccp22_14"
  top: "pool2_14"
  pooling_param {
    pool: AVE
    kernel_size: 3
    stride: 2
  }
}
layer {
  name: "drop2_14"
  type: "Dropout"
  bottom: "pool2_14"
  top: "pool2_14"
  dropout_param {
    dropout_ratio: 0.5
  }
}
layer {
  name: "conv3_14"
  type: "Convolution"
  bottom: "pool2_14"
  top: "conv3_14"
  param {
    name: "conv3_w"
    lr_mult: 0
  }
  param {
    name: "conv3_b"
    lr_mult: 0
  }
  convolution_param {
    num_output: 128
    pad: 1
    kernel_size: 3
    weight_filler {
      type: "gaussian"
      std: 0.03
    }
    bias_filler {
      type: "constant"
    }
  }
}
layer {
  name: "relu3_14"
  type: "ReLU"
  bottom: "conv3_14"
  top: "conv3_14"
}
layer {
  name: "cccp31_14"
  type: "Convolution"
  bottom: "conv3_14"
  top: "cccp31_14"
  param {
    name: "cccp31_w"
    lr_mult: 0
  }
  param {
    name: "cccp31_b"
    lr_mult: 0
  }
  convolution_param {
    num_output: 128
    kernel_size: 1
    group: 1
    weight_filler {
      type: "gaussian"
      std: 0.1
    }
    bias_filler {
      type: "constant"
      value: 0
    }
  }
}
# -> conv-out: 128 x 5 x 1 x 30 x 30
layer {
  name: "aniprobing-1_15"
  type: "Convolution"
  bottom: "data_15"
  top: "aniprobing-1_15"
  param {
    name: "aniprobing-1_w"
    lr_mult: 0
  }
  param {
    name: "aniprobing-1_b"
    lr_mult: 0
  }
  convolution_param {
    num_output: 5
    axis: 1
    kernel_size: 30
    kernel_size: 1
    kernel_size: 1
    stride: 30
    stride: 1
    stride: 1
    weight_filler {
        type: "gaussian"
        std: 0.25
    }
    bias_filler {
        type: "constant"
        value: 0
    }
  }
}

layer {
  name: "relu-1_15"
  type: "ReLU"
  bottom: "aniprobing-1_15"
  top: "aniprobing-1_15"
}

# -> conv-out: 128 x 1 x 5 x 30 x 30
layer {
  name: "reshape"
  type: "Reshape"
  bottom: "aniprobing-1_15"
  top: "aniprobing-1-rs_15"
  reshape_param {
    shape {
      dim: 0
      dim: 1
      dim: 5
      dim: 30
      dim: 30
    }
  }
}

# -> conv-out: 128 x 5 x 1 x 30 x 30
layer {
  name: "aniprobing-2_15"
  type: "Convolution"
  bottom: "aniprobing-1-rs_15"
  top: "aniprobing-2_15"
  param {
    name: "aniprobing-2_w"
    lr_mult: 0
  }
  param {
    name: "aniprobing-2_b"
    lr_mult: 0
  }
  convolution_param {
    num_output: 5
    axis: 1
    kernel_size: 5
    kernel_size: 1
    kernel_size: 1
    stride: 5
    stride: 1
    stride: 1
    weight_filler {
        type: "gaussian"
        std: 0.45
    }
    bias_filler {
        type: "constant"
        value: 0
    }
  }
}
layer {
  name: "relu-2_15"
  type: "ReLU"
  bottom: "aniprobing-2_15"
  top: "aniprobing-2_15"
}
layer {
  name: "reshape"
  type: "Reshape"
  bottom: "aniprobing-2_15"
  top: "aniprobing-2-rs_15"
  reshape_param {
    shape {
      dim: 0
      dim: 1
      dim: 5
      dim: 30
      dim: 30
    }
  }
}

# -> conv-out: 128 x 1 x 1 x 30 x 30
layer {
  name: "aniprobing-3_15"
  type: "Convolution"
  bottom: "aniprobing-2-rs_15"
  top: "aniprobing-3_15"
  param {
    name: "aniprobing-3_w"
    lr_mult: 0
  }
  param {
    name: "aniprobing-3_b"
    lr_mult: 0
  }
  convolution_param {
    num_output: 1
    axis: 1
    kernel_size: 5
    kernel_size: 1
    kernel_size: 1
    stride: 5
    stride: 1
    stride: 1
    weight_filler {
        type: "gaussian"
        std: 0.63
    }
    bias_filler {
        type: "constant"
        value: 0
    }
  }
}

layer {
  name: "relu-3_15"
  type: "ReLU"
  bottom: "aniprobing-3_15"
  top: "aniprobing-3_15"
}

layer {
  name: "reshape"
  type: "Reshape"
  bottom: "aniprobing-3_15"
  top: "aniprobing-3-rs_15"
  reshape_param {
    shape {
      dim: 0
      dim: 1
      dim: 30
      dim: 30
    }
  }
}
####################
layer {
  name: "conv1_15"
  type: "Convolution"
  bottom: "aniprobing-3-rs_15"
  top: "conv1_15"
  param {
    name: "conv1_w"
    lr_mult: 0
  }
  param {
    name: "conv1_b"
    lr_mult: 0
  }
  convolution_param {
    num_output: 128
    pad: 3
    kernel_size: 5
    weight_filler {
      type: "gaussian"
      std: 0.28
    }
    bias_filler {
      type: "constant"
    }
  }
}
layer {
  name: "relu1_15"
  type: "ReLU"
  bottom: "conv1_15"
  top: "conv1_15"
}
layer {
  name: "cccp11_15"
  type: "Convolution"
;  bottom: "conv1_15"
  top: "cccp11_15"
  param {
    name: "cccp11_w"
    lr_mult: 0
  }
  param {
    name: "cccp11_b"
    lr_mult: 0
  }
  convolution_param {
    num_output: 96
    kernel_size: 1
    group: 1
    weight_filler {
      type: "gaussian"
      std: 0.1
    }
    bias_filler {
      type: "constant"
      value: 0
    }
  }
}
layer {
  name: "relu_cccp11_15"
  type: "ReLU"
  bottom: "cccp11_15"
  top: "cccp11_15"
}
layer {
  name: "cccp12_15"
  type: "Convolution"
  bottom: "cccp11_15"
  top: "cccp12_15"
  param {
    name: "cccp12_w"
    lr_mult: 0
  }
  param {
    name: "cccp12_b"
    lr_mult: 0
  }
  convolution_param {
    num_output: 96
    kernel_size: 1
    group: 1
    weight_filler {
      type: "gaussian"
      std: 0.11
    }
    bias_filler {
      type: "constant"
      value: 0
    }
  }
}
layer {
  name: "relu_cccp12_15"
  type: "ReLU"
  bottom: "cccp12_15"
  top: "cccp12_15"
}
layer {
  name: "pool1_15"
  type: "Pooling"
  bottom: "cccp12_15"
  top: "pool1_15"
  pooling_param {
    pool: MAX
    kernel_size: 3
    stride: 2
  }
}
layer {
  name: "drop1_15"
  type: "Dropout"
  bottom: "pool1_15"
  top: "pool1_15"
  dropout_param {
    dropout_ratio: 0.5
  }
}
layer {
  name: "conv2_15"
  type: "Convolution"
  bottom: "pool1_15"
  top: "conv2_15"
  param {
    name: "conv2_w"
    lr_mult: 0
  }
  param {
    name: "conv2_b"
    lr_mult: 0
  }
  convolution_param {
    num_output: 128
    pad: 2
    kernel_size: 5
    weight_filler {
      type: "gaussian"
      std: 0.03
    }
    bias_filler {
      type: "constant"
    }
  }
}
layer {
  name: "relu2_15"
  type: "ReLU"
  bottom: "conv2_15"
  top: "conv2_15"
}
layer {
  name: "cccp21_15"
  type: "Convolution"
  bottom: "conv2_15"
  top: "cccp21_15"
  param {
    name: "cccp21_w"
    lr_mult: 0
  }
  param {
    name: "cccp21_b"
    lr_mult: 0
  }
  convolution_param {
    num_output: 96
    kernel_size: 1
    group: 1
    weight_filler {
      type: "gaussian"
      std: 0.1
    }
    bias_filler {
      type: "constant"
      value: 0
    }
  }
}
layer {
  name: "relu_cccp21_15"
  type: "ReLU"
  bottom: "cccp21_15"
  top: "cccp21_15"
}
layer {
  name: "cccp22_15"
  type: "Convolution"
  bottom: "cccp21_15"
  top: "cccp22_15"
  param {
    name: "cccp22_w"
    lr_mult: 0
  }
  param {
    name: "cccp22_b"
    lr_mult: 0
  }
  convolution_param {
    num_output: 96
    kernel_size: 1
    group: 1
    weight_filler {
      type: "gaussian"
      std: 0.1
    }
    bias_filler {
      type: "constant"
      value: 0
    }
  }
}
layer {
  name: "relu_cccp22_15"
  type: "ReLU"
  bottom: "cccp22_15"
  top: "cccp22_15"
}
layer {
  name: "pool2_15"
  type: "Pooling"
  bottom: "cccp22_15"
  top: "pool2_15"
  pooling_param {
    pool: AVE
    kernel_size: 3
    stride: 2
  }
}
layer {
  name: "drop2_15"
  type: "Dropout"
  bottom: "pool2_15"
  top: "pool2_15"
  dropout_param {
    dropout_ratio: 0.5
  }
}
layer {
  name: "conv3_15"
  type: "Convolution"
  bottom: "pool2_15"
  top: "conv3_15"
  param {
    name: "conv3_w"
    lr_mult: 0
  }
  param {
    name: "conv3_b"
    lr_mult: 0
  }
  convolution_param {
    num_output: 128
    pad: 1
    kernel_size: 3
    weight_filler {
      type: "gaussian"
      std: 0.03
    }
    bias_filler {
      type: "constant"
    }
  }
}
layer {
  name: "relu3_15"
  type: "ReLU"
  bottom: "conv3_15"
  top: "conv3_15"
}
layer {
  name: "cccp31_15"
  type: "Convolution"
  bottom: "conv3_15"
  top: "cccp31_15"
  param {
    name: "cccp31_w"
    lr_mult: 0
  }
  param {
    name: "cccp31_b"
    lr_mult: 0
  }
  convolution_param {
    num_output: 128
    kernel_size: 1
    group: 1
    weight_filler {
      type: "gaussian"
      std: 0.1
    }
    bias_filler {
      type: "constant"
      value: 0
    }
  }
}
# -> conv-out: 128 x 5 x 1 x 30 x 30
layer {
  name: "aniprobing-1_16"
  type: "Convolution"
  bottom: "data_16"
  top: "aniprobing-1_16"
  param {
    name: "aniprobing-1_w"
    lr_mult: 0
  }
  param {
    name: "aniprobing-1_b"
    lr_mult: 0
  }
  convolution_param {
    num_output: 5
    axis: 1
    kernel_size: 30
    kernel_size: 1
    kernel_size: 1
    stride: 30
    stride: 1
    stride: 1
    weight_filler {
        type: "gaussian"
        std: 0.25
    }
    bias_filler {
        type: "constant"
        value: 0
    }
  }
}

layer {
  name: "relu-1_16"
  type: "ReLU"
  bottom: "aniprobing-1_16"
  top: "aniprobing-1_16"
}

# -> conv-out: 128 x 1 x 5 x 30 x 30
layer {
  name: "reshape"
  type: "Reshape"
  bottom: "aniprobing-1_16"
  top: "aniprobing-1-rs_16"
  reshape_param {
    shape {
      dim: 0
      dim: 1
      dim: 5
      dim: 30
      dim: 30
    }
  }
}

# -> conv-out: 128 x 5 x 1 x 30 x 30
layer {
  name: "aniprobing-2_16"
  type: "Convolution"
  bottom: "aniprobing-1-rs_16"
  top: "aniprobing-2_16"
  param {
    name: "aniprobing-2_w"
    lr_mult: 0
  }
  param {
    name: "aniprobing-2_b"
    lr_mult: 0
  }
  convolution_param {
    num_output: 5
    axis: 1
    kernel_size: 5
    kernel_size: 1
    kernel_size: 1
    stride: 5
    stride: 1
    stride: 1
    weight_filler {
        type: "gaussian"
        std: 0.45
    }
    bias_filler {
        type: "constant"
        value: 0
    }
  }
}
layer {
  name: "relu-2_16"
  type: "ReLU"
  bottom: "aniprobing-2_16"
  top: "aniprobing-2_16"
}
layer {
  name: "reshape"
  type: "Reshape"
  bottom: "aniprobing-2_16"
  top: "aniprobing-2-rs_16"
  reshape_param {
    shape {
      dim: 0
      dim: 1
      dim: 5
      dim: 30
      dim: 30
    }
  }
}

# -> conv-out: 128 x 1 x 1 x 30 x 30
layer {
  name: "aniprobing-3_16"
  type: "Convolution"
  bottom: "aniprobing-2-rs_16"
  top: "aniprobing-3_16"
  param {
    name: "aniprobing-3_w"
    lr_mult: 0
  }
  param {
    name: "aniprobing-3_b"
    lr_mult: 0
  }
  convolution_param {
    num_output: 1
    axis: 1
    kernel_size: 5
    kernel_size: 1
    kernel_size: 1
    stride: 5
    stride: 1
    stride: 1
    weight_filler {
        type: "gaussian"
        std: 0.63
    }
    bias_filler {
        type: "constant"
        value: 0
    }
  }
}

layer {
  name: "relu-3_16"
  type: "ReLU"
  bottom: "aniprobing-3_16"
  top: "aniprobing-3_16"
}

layer {
  name: "reshape"
  type: "Reshape"
  bottom: "aniprobing-3_16"
  top: "aniprobing-3-rs_16"
  reshape_param {
    shape {
      dim: 0
      dim: 1
      dim: 30
      dim: 30
    }
  }
}
####################
layer {
  name: "conv1_16"
  type: "Convolution"
  bottom: "aniprobing-3-rs_16"
  top: "conv1_16"
  param {
    name: "conv1_w"
    lr_mult: 0
  }
  param {
    name: "conv1_b"
    lr_mult: 0
  }
  convolution_param {
    num_output: 128
    pad: 3
    kernel_size: 5
    weight_filler {
      type: "gaussian"
      std: 0.28
    }
    bias_filler {
      type: "constant"
    }
  }
}
layer {
  name: "relu1_16"
  type: "ReLU"
  bottom: "conv1_16"
  top: "conv1_16"
}
layer {
  name: "cccp11_16"
  type: "Convolution"
;  bottom: "conv1_16"
  top: "cccp11_16"
  param {
    name: "cccp11_w"
    lr_mult: 0
  }
  param {
    name: "cccp11_b"
    lr_mult: 0
  }
  convolution_param {
    num_output: 96
    kernel_size: 1
    group: 1
    weight_filler {
      type: "gaussian"
      std: 0.1
    }
    bias_filler {
      type: "constant"
      value: 0
    }
  }
}
layer {
  name: "relu_cccp11_16"
  type: "ReLU"
  bottom: "cccp11_16"
  top: "cccp11_16"
}
layer {
  name: "cccp12_16"
  type: "Convolution"
  bottom: "cccp11_16"
  top: "cccp12_16"
  param {
    name: "cccp12_w"
    lr_mult: 0
  }
  param {
    name: "cccp12_b"
    lr_mult: 0
  }
  convolution_param {
    num_output: 96
    kernel_size: 1
    group: 1
    weight_filler {
      type: "gaussian"
      std: 0.11
    }
    bias_filler {
      type: "constant"
      value: 0
    }
  }
}
layer {
  name: "relu_cccp12_16"
  type: "ReLU"
  bottom: "cccp12_16"
  top: "cccp12_16"
}
layer {
  name: "pool1_16"
  type: "Pooling"
  bottom: "cccp12_16"
  top: "pool1_16"
  pooling_param {
    pool: MAX
    kernel_size: 3
    stride: 2
  }
}
layer {
  name: "drop1_16"
  type: "Dropout"
  bottom: "pool1_16"
  top: "pool1_16"
  dropout_param {
    dropout_ratio: 0.5
  }
}
layer {
  name: "conv2_16"
  type: "Convolution"
  bottom: "pool1_16"
  top: "conv2_16"
  param {
    name: "conv2_w"
    lr_mult: 0
  }
  param {
    name: "conv2_b"
    lr_mult: 0
  }
  convolution_param {
    num_output: 128
    pad: 2
    kernel_size: 5
    weight_filler {
      type: "gaussian"
      std: 0.03
    }
    bias_filler {
      type: "constant"
    }
  }
}
layer {
  name: "relu2_16"
  type: "ReLU"
  bottom: "conv2_16"
  top: "conv2_16"
}
layer {
  name: "cccp21_16"
  type: "Convolution"
  bottom: "conv2_16"
  top: "cccp21_16"
  param {
    name: "cccp21_w"
    lr_mult: 0
  }
  param {
    name: "cccp21_b"
    lr_mult: 0
  }
  convolution_param {
    num_output: 96
    kernel_size: 1
    group: 1
    weight_filler {
      type: "gaussian"
      std: 0.1
    }
    bias_filler {
      type: "constant"
      value: 0
    }
  }
}
layer {
  name: "relu_cccp21_16"
  type: "ReLU"
  bottom: "cccp21_16"
  top: "cccp21_16"
}
layer {
  name: "cccp22_16"
  type: "Convolution"
  bottom: "cccp21_16"
  top: "cccp22_16"
  param {
    name: "cccp22_w"
    lr_mult: 0
  }
  param {
    name: "cccp22_b"
    lr_mult: 0
  }
  convolution_param {
    num_output: 96
    kernel_size: 1
    group: 1
    weight_filler {
      type: "gaussian"
      std: 0.1
    }
    bias_filler {
      type: "constant"
      value: 0
    }
  }
}
layer {
  name: "relu_cccp22_16"
  type: "ReLU"
  bottom: "cccp22_16"
  top: "cccp22_16"
}
layer {
  name: "pool2_16"
  type: "Pooling"
  bottom: "cccp22_16"
  top: "pool2_16"
  pooling_param {
    pool: AVE
    kernel_size: 3
    stride: 2
  }
}
layer {
  name: "drop2_16"
  type: "Dropout"
  bottom: "pool2_16"
  top: "pool2_16"
  dropout_param {
    dropout_ratio: 0.5
  }
}
layer {
  name: "conv3_16"
  type: "Convolution"
  bottom: "pool2_16"
  top: "conv3_16"
  param {
    name: "conv3_w"
    lr_mult: 0
  }
  param {
    name: "conv3_b"
    lr_mult: 0
  }
  convolution_param {
    num_output: 128
    pad: 1
    kernel_size: 3
    weight_filler {
      type: "gaussian"
      std: 0.03
    }
    bias_filler {
      type: "constant"
    }
  }
}
layer {
  name: "relu3_16"
  type: "ReLU"
  bottom: "conv3_16"
  top: "conv3_16"
}
layer {
  name: "cccp31_16"
  type: "Convolution"
  bottom: "conv3_16"
  top: "cccp31_16"
  param {
    name: "cccp31_w"
    lr_mult: 0
  }
  param {
    name: "cccp31_b"
    lr_mult: 0
  }
  convolution_param {
    num_output: 128
    kernel_size: 1
    group: 1
    weight_filler {
      type: "gaussian"
      std: 0.1
    }
    bias_filler {
      type: "constant"
      value: 0
    }
  }
}
# -> conv-out: 128 x 5 x 1 x 30 x 30
layer {
  name: "aniprobing-1_17"
  type: "Convolution"
  bottom: "data_17"
  top: "aniprobing-1_17"
  param {
    name: "aniprobing-1_w"
    lr_mult: 0
  }
  param {
    name: "aniprobing-1_b"
    lr_mult: 0
  }
  convolution_param {
    num_output: 5
    axis: 1
    kernel_size: 30
    kernel_size: 1
    kernel_size: 1
    stride: 30
    stride: 1
    stride: 1
    weight_filler {
        type: "gaussian"
        std: 0.25
    }
    bias_filler {
        type: "constant"
        value: 0
    }
  }
}

layer {
  name: "relu-1_17"
  type: "ReLU"
  bottom: "aniprobing-1_17"
  top: "aniprobing-1_17"
}

# -> conv-out: 128 x 1 x 5 x 30 x 30
layer {
  name: "reshape"
  type: "Reshape"
  bottom: "aniprobing-1_17"
  top: "aniprobing-1-rs_17"
  reshape_param {
    shape {
      dim: 0
      dim: 1
      dim: 5
      dim: 30
      dim: 30
    }
  }
}

# -> conv-out: 128 x 5 x 1 x 30 x 30
layer {
  name: "aniprobing-2_17"
  type: "Convolution"
  bottom: "aniprobing-1-rs_17"
  top: "aniprobing-2_17"
  param {
    name: "aniprobing-2_w"
    lr_mult: 0
  }
  param {
    name: "aniprobing-2_b"
    lr_mult: 0
  }
  convolution_param {
    num_output: 5
    axis: 1
    kernel_size: 5
    kernel_size: 1
    kernel_size: 1
    stride: 5
    stride: 1
    stride: 1
    weight_filler {
        type: "gaussian"
        std: 0.45
    }
    bias_filler {
        type: "constant"
        value: 0
    }
  }
}
layer {
  name: "relu-2_17"
  type: "ReLU"
  bottom: "aniprobing-2_17"
  top: "aniprobing-2_17"
}
layer {
  name: "reshape"
  type: "Reshape"
  bottom: "aniprobing-2_17"
  top: "aniprobing-2-rs_17"
  reshape_param {
    shape {
      dim: 0
      dim: 1
      dim: 5
      dim: 30
      dim: 30
    }
  }
}

# -> conv-out: 128 x 1 x 1 x 30 x 30
layer {
  name: "aniprobing-3_17"
  type: "Convolution"
  bottom: "aniprobing-2-rs_17"
  top: "aniprobing-3_17"
  param {
    name: "aniprobing-3_w"
    lr_mult: 0
  }
  param {
    name: "aniprobing-3_b"
    lr_mult: 0
  }
  convolution_param {
    num_output: 1
    axis: 1
    kernel_size: 5
    kernel_size: 1
    kernel_size: 1
    stride: 5
    stride: 1
    stride: 1
    weight_filler {
        type: "gaussian"
        std: 0.63
    }
    bias_filler {
        type: "constant"
        value: 0
    }
  }
}

layer {
  name: "relu-3_17"
  type: "ReLU"
  bottom: "aniprobing-3_17"
  top: "aniprobing-3_17"
}

layer {
  name: "reshape"
  type: "Reshape"
  bottom: "aniprobing-3_17"
  top: "aniprobing-3-rs_17"
  reshape_param {
    shape {
      dim: 0
      dim: 1
      dim: 30
      dim: 30
    }
  }
}
####################
layer {
  name: "conv1_17"
  type: "Convolution"
  bottom: "aniprobing-3-rs_17"
  top: "conv1_17"
  param {
    name: "conv1_w"
    lr_mult: 0
  }
  param {
    name: "conv1_b"
    lr_mult: 0
  }
  convolution_param {
    num_output: 128
    pad: 3
    kernel_size: 5
    weight_filler {
      type: "gaussian"
      std: 0.28
    }
    bias_filler {
      type: "constant"
    }
  }
}
layer {
  name: "relu1_17"
  type: "ReLU"
  bottom: "conv1_17"
  top: "conv1_17"
}
layer {
  name: "cccp11_17"
  type: "Convolution"
;  bottom: "conv1_17"
  top: "cccp11_17"
  param {
    name: "cccp11_w"
    lr_mult: 0
  }
  param {
    name: "cccp11_b"
    lr_mult: 0
  }
  convolution_param {
    num_output: 96
    kernel_size: 1
    group: 1
    weight_filler {
      type: "gaussian"
      std: 0.1
    }
    bias_filler {
      type: "constant"
      value: 0
    }
  }
}
layer {
  name: "relu_cccp11_17"
  type: "ReLU"
  bottom: "cccp11_17"
  top: "cccp11_17"
}
layer {
  name: "cccp12_17"
  type: "Convolution"
  bottom: "cccp11_17"
  top: "cccp12_17"
  param {
    name: "cccp12_w"
    lr_mult: 0
  }
  param {
    name: "cccp12_b"
    lr_mult: 0
  }
  convolution_param {
    num_output: 96
    kernel_size: 1
    group: 1
    weight_filler {
      type: "gaussian"
      std: 0.11
    }
    bias_filler {
      type: "constant"
      value: 0
    }
  }
}
layer {
  name: "relu_cccp12_17"
  type: "ReLU"
  bottom: "cccp12_17"
  top: "cccp12_17"
}
layer {
  name: "pool1_17"
  type: "Pooling"
  bottom: "cccp12_17"
  top: "pool1_17"
  pooling_param {
    pool: MAX
    kernel_size: 3
    stride: 2
  }
}
layer {
  name: "drop1_17"
  type: "Dropout"
  bottom: "pool1_17"
  top: "pool1_17"
  dropout_param {
    dropout_ratio: 0.5
  }
}
layer {
  name: "conv2_17"
  type: "Convolution"
  bottom: "pool1_17"
  top: "conv2_17"
  param {
    name: "conv2_w"
    lr_mult: 0
  }
  param {
    name: "conv2_b"
    lr_mult: 0
  }
  convolution_param {
    num_output: 128
    pad: 2
    kernel_size: 5
    weight_filler {
      type: "gaussian"
      std: 0.03
    }
    bias_filler {
      type: "constant"
    }
  }
}
layer {
  name: "relu2_17"
  type: "ReLU"
  bottom: "conv2_17"
  top: "conv2_17"
}
layer {
  name: "cccp21_17"
  type: "Convolution"
  bottom: "conv2_17"
  top: "cccp21_17"
  param {
    name: "cccp21_w"
    lr_mult: 0
  }
  param {
    name: "cccp21_b"
    lr_mult: 0
  }
  convolution_param {
    num_output: 96
    kernel_size: 1
    group: 1
    weight_filler {
      type: "gaussian"
      std: 0.1
    }
    bias_filler {
      type: "constant"
      value: 0
    }
  }
}
layer {
  name: "relu_cccp21_17"
  type: "ReLU"
  bottom: "cccp21_17"
  top: "cccp21_17"
}
layer {
  name: "cccp22_17"
  type: "Convolution"
  bottom: "cccp21_17"
  top: "cccp22_17"
  param {
    name: "cccp22_w"
    lr_mult: 0
  }
  param {
    name: "cccp22_b"
    lr_mult: 0
  }
  convolution_param {
    num_output: 96
    kernel_size: 1
    group: 1
    weight_filler {
      type: "gaussian"
      std: 0.1
    }
    bias_filler {
      type: "constant"
      value: 0
    }
  }
}
layer {
  name: "relu_cccp22_17"
  type: "ReLU"
  bottom: "cccp22_17"
  top: "cccp22_17"
}
layer {
  name: "pool2_17"
  type: "Pooling"
  bottom: "cccp22_17"
  top: "pool2_17"
  pooling_param {
    pool: AVE
    kernel_size: 3
    stride: 2
  }
}
layer {
  name: "drop2_17"
  type: "Dropout"
  bottom: "pool2_17"
  top: "pool2_17"
  dropout_param {
    dropout_ratio: 0.5
  }
}
layer {
  name: "conv3_17"
  type: "Convolution"
  bottom: "pool2_17"
  top: "conv3_17"
  param {
    name: "conv3_w"
    lr_mult: 0
  }
  param {
    name: "conv3_b"
    lr_mult: 0
  }
  convolution_param {
    num_output: 128
    pad: 1
    kernel_size: 3
    weight_filler {
      type: "gaussian"
      std: 0.03
    }
    bias_filler {
      type: "constant"
    }
  }
}
layer {
  name: "relu3_17"
  type: "ReLU"
  bottom: "conv3_17"
  top: "conv3_17"
}
layer {
  name: "cccp31_17"
  type: "Convolution"
  bottom: "conv3_17"
  top: "cccp31_17"
  param {
    name: "cccp31_w"
    lr_mult: 0
  }
  param {
    name: "cccp31_b"
    lr_mult: 0
  }
  convolution_param {
    num_output: 128
    kernel_size: 1
    group: 1
    weight_filler {
      type: "gaussian"
      std: 0.1
    }
    bias_filler {
      type: "constant"
      value: 0
    }
  }
}
# -> conv-out: 128 x 5 x 1 x 30 x 30
layer {
  name: "aniprobing-1_18"
  type: "Convolution"
  bottom: "data_18"
  top: "aniprobing-1_18"
  param {
    name: "aniprobing-1_w"
    lr_mult: 0
  }
  param {
    name: "aniprobing-1_b"
    lr_mult: 0
  }
  convolution_param {
    num_output: 5
    axis: 1
    kernel_size: 30
    kernel_size: 1
    kernel_size: 1
    stride: 30
    stride: 1
    stride: 1
    weight_filler {
        type: "gaussian"
        std: 0.25
    }
    bias_filler {
        type: "constant"
        value: 0
    }
  }
}

layer {
  name: "relu-1_18"
  type: "ReLU"
  bottom: "aniprobing-1_18"
  top: "aniprobing-1_18"
}

# -> conv-out: 128 x 1 x 5 x 30 x 30
layer {
  name: "reshape"
  type: "Reshape"
  bottom: "aniprobing-1_18"
  top: "aniprobing-1-rs_18"
  reshape_param {
    shape {
      dim: 0
      dim: 1
      dim: 5
      dim: 30
      dim: 30
    }
  }
}

# -> conv-out: 128 x 5 x 1 x 30 x 30
layer {
  name: "aniprobing-2_18"
  type: "Convolution"
  bottom: "aniprobing-1-rs_18"
  top: "aniprobing-2_18"
  param {
    name: "aniprobing-2_w"
    lr_mult: 0
  }
  param {
    name: "aniprobing-2_b"
    lr_mult: 0
  }
  convolution_param {
    num_output: 5
    axis: 1
    kernel_size: 5
    kernel_size: 1
    kernel_size: 1
    stride: 5
    stride: 1
    stride: 1
    weight_filler {
        type: "gaussian"
        std: 0.45
    }
    bias_filler {
        type: "constant"
        value: 0
    }
  }
}
layer {
  name: "relu-2_18"
  type: "ReLU"
  bottom: "aniprobing-2_18"
  top: "aniprobing-2_18"
}
layer {
  name: "reshape"
  type: "Reshape"
  bottom: "aniprobing-2_18"
  top: "aniprobing-2-rs_18"
  reshape_param {
    shape {
      dim: 0
      dim: 1
      dim: 5
      dim: 30
      dim: 30
    }
  }
}

# -> conv-out: 128 x 1 x 1 x 30 x 30
layer {
  name: "aniprobing-3_18"
  type: "Convolution"
  bottom: "aniprobing-2-rs_18"
  top: "aniprobing-3_18"
  param {
    name: "aniprobing-3_w"
    lr_mult: 0
  }
  param {
    name: "aniprobing-3_b"
    lr_mult: 0
  }
  convolution_param {
    num_output: 1
    axis: 1
    kernel_size: 5
    kernel_size: 1
    kernel_size: 1
    stride: 5
    stride: 1
    stride: 1
    weight_filler {
        type: "gaussian"
        std: 0.63
    }
    bias_filler {
        type: "constant"
        value: 0
    }
  }
}

layer {
  name: "relu-3_18"
  type: "ReLU"
  bottom: "aniprobing-3_18"
  top: "aniprobing-3_18"
}

layer {
  name: "reshape"
  type: "Reshape"
  bottom: "aniprobing-3_18"
  top: "aniprobing-3-rs_18"
  reshape_param {
    shape {
      dim: 0
      dim: 1
      dim: 30
      dim: 30
    }
  }
}
####################
layer {
  name: "conv1_18"
  type: "Convolution"
  bottom: "aniprobing-3-rs_18"
  top: "conv1_18"
  param {
    name: "conv1_w"
    lr_mult: 0
  }
  param {
    name: "conv1_b"
    lr_mult: 0
  }
  convolution_param {
    num_output: 128
    pad: 3
    kernel_size: 5
    weight_filler {
      type: "gaussian"
      std: 0.28
    }
    bias_filler {
      type: "constant"
    }
  }
}
layer {
  name: "relu1_18"
  type: "ReLU"
  bottom: "conv1_18"
  top: "conv1_18"
}
layer {
  name: "cccp11_18"
  type: "Convolution"
;  bottom: "conv1_18"
  top: "cccp11_18"
  param {
    name: "cccp11_w"
    lr_mult: 0
  }
  param {
    name: "cccp11_b"
    lr_mult: 0
  }
  convolution_param {
    num_output: 96
    kernel_size: 1
    group: 1
    weight_filler {
      type: "gaussian"
      std: 0.1
    }
    bias_filler {
      type: "constant"
      value: 0
    }
  }
}
layer {
  name: "relu_cccp11_18"
  type: "ReLU"
  bottom: "cccp11_18"
  top: "cccp11_18"
}
layer {
  name: "cccp12_18"
  type: "Convolution"
  bottom: "cccp11_18"
  top: "cccp12_18"
  param {
    name: "cccp12_w"
    lr_mult: 0
  }
  param {
    name: "cccp12_b"
    lr_mult: 0
  }
  convolution_param {
    num_output: 96
    kernel_size: 1
    group: 1
    weight_filler {
      type: "gaussian"
      std: 0.11
    }
    bias_filler {
      type: "constant"
      value: 0
    }
  }
}
layer {
  name: "relu_cccp12_18"
  type: "ReLU"
  bottom: "cccp12_18"
  top: "cccp12_18"
}
layer {
  name: "pool1_18"
  type: "Pooling"
  bottom: "cccp12_18"
  top: "pool1_18"
  pooling_param {
    pool: MAX
    kernel_size: 3
    stride: 2
  }
}
layer {
  name: "drop1_18"
  type: "Dropout"
  bottom: "pool1_18"
  top: "pool1_18"
  dropout_param {
    dropout_ratio: 0.5
  }
}
layer {
  name: "conv2_18"
  type: "Convolution"
  bottom: "pool1_18"
  top: "conv2_18"
  param {
    name: "conv2_w"
    lr_mult: 0
  }
  param {
    name: "conv2_b"
    lr_mult: 0
  }
  convolution_param {
    num_output: 128
    pad: 2
    kernel_size: 5
    weight_filler {
      type: "gaussian"
      std: 0.03
    }
    bias_filler {
      type: "constant"
    }
  }
}
layer {
  name: "relu2_18"
  type: "ReLU"
  bottom: "conv2_18"
  top: "conv2_18"
}
layer {
  name: "cccp21_18"
  type: "Convolution"
  bottom: "conv2_18"
  top: "cccp21_18"
  param {
    name: "cccp21_w"
    lr_mult: 0
  }
  param {
    name: "cccp21_b"
    lr_mult: 0
  }
  convolution_param {
    num_output: 96
    kernel_size: 1
    group: 1
    weight_filler {
      type: "gaussian"
      std: 0.1
    }
    bias_filler {
      type: "constant"
      value: 0
    }
  }
}
layer {
  name: "relu_cccp21_18"
  type: "ReLU"
  bottom: "cccp21_18"
  top: "cccp21_18"
}
layer {
  name: "cccp22_18"
  type: "Convolution"
  bottom: "cccp21_18"
  top: "cccp22_18"
  param {
    name: "cccp22_w"
    lr_mult: 0
  }
  param {
    name: "cccp22_b"
    lr_mult: 0
  }
  convolution_param {
    num_output: 96
    kernel_size: 1
    group: 1
    weight_filler {
      type: "gaussian"
      std: 0.1
    }
    bias_filler {
      type: "constant"
      value: 0
    }
  }
}
layer {
  name: "relu_cccp22_18"
  type: "ReLU"
  bottom: "cccp22_18"
  top: "cccp22_18"
}
layer {
  name: "pool2_18"
  type: "Pooling"
  bottom: "cccp22_18"
  top: "pool2_18"
  pooling_param {
    pool: AVE
    kernel_size: 3
    stride: 2
  }
}
layer {
  name: "drop2_18"
  type: "Dropout"
  bottom: "pool2_18"
  top: "pool2_18"
  dropout_param {
    dropout_ratio: 0.5
  }
}
layer {
  name: "conv3_18"
  type: "Convolution"
  bottom: "pool2_18"
  top: "conv3_18"
  param {
    name: "conv3_w"
    lr_mult: 0
  }
  param {
    name: "conv3_b"
    lr_mult: 0
  }
  convolution_param {
    num_output: 128
    pad: 1
    kernel_size: 3
    weight_filler {
      type: "gaussian"
      std: 0.03
    }
    bias_filler {
      type: "constant"
    }
  }
}
layer {
  name: "relu3_18"
  type: "ReLU"
  bottom: "conv3_18"
  top: "conv3_18"
}
layer {
  name: "cccp31_18"
  type: "Convolution"
  bottom: "conv3_18"
  top: "cccp31_18"
  param {
    name: "cccp31_w"
    lr_mult: 0
  }
  param {
    name: "cccp31_b"
    lr_mult: 0
  }
  convolution_param {
    num_output: 128
    kernel_size: 1
    group: 1
    weight_filler {
      type: "gaussian"
      std: 0.1
    }
    bias_filler {
      type: "constant"
      value: 0
    }
  }
}
# -> conv-out: 128 x 5 x 1 x 30 x 30
layer {
  name: "aniprobing-1_19"
  type: "Convolution"
  bottom: "data_19"
  top: "aniprobing-1_19"
  param {
    name: "aniprobing-1_w"
    lr_mult: 0
  }
  param {
    name: "aniprobing-1_b"
    lr_mult: 0
  }
  convolution_param {
    num_output: 5
    axis: 1
    kernel_size: 30
    kernel_size: 1
    kernel_size: 1
    stride: 30
    stride: 1
    stride: 1
    weight_filler {
        type: "gaussian"
        std: 0.25
    }
    bias_filler {
        type: "constant"
        value: 0
    }
  }
}

layer {
  name: "relu-1_19"
  type: "ReLU"
  bottom: "aniprobing-1_19"
  top: "aniprobing-1_19"
}

# -> conv-out: 128 x 1 x 5 x 30 x 30
layer {
  name: "reshape"
  type: "Reshape"
  bottom: "aniprobing-1_19"
  top: "aniprobing-1-rs_19"
  reshape_param {
    shape {
      dim: 0
      dim: 1
      dim: 5
      dim: 30
      dim: 30
    }
  }
}

# -> conv-out: 128 x 5 x 1 x 30 x 30
layer {
  name: "aniprobing-2_19"
  type: "Convolution"
  bottom: "aniprobing-1-rs_19"
  top: "aniprobing-2_19"
  param {
    name: "aniprobing-2_w"
    lr_mult: 0
  }
  param {
    name: "aniprobing-2_b"
    lr_mult: 0
  }
  convolution_param {
    num_output: 5
    axis: 1
    kernel_size: 5
    kernel_size: 1
    kernel_size: 1
    stride: 5
    stride: 1
    stride: 1
    weight_filler {
        type: "gaussian"
        std: 0.45
    }
    bias_filler {
        type: "constant"
        value: 0
    }
  }
}
layer {
  name: "relu-2_19"
  type: "ReLU"
  bottom: "aniprobing-2_19"
  top: "aniprobing-2_19"
}
layer {
  name: "reshape"
  type: "Reshape"
  bottom: "aniprobing-2_19"
  top: "aniprobing-2-rs_19"
  reshape_param {
    shape {
      dim: 0
      dim: 1
      dim: 5
      dim: 30
      dim: 30
    }
  }
}

# -> conv-out: 128 x 1 x 1 x 30 x 30
layer {
  name: "aniprobing-3_19"
  type: "Convolution"
  bottom: "aniprobing-2-rs_19"
  top: "aniprobing-3_19"
  param {
    name: "aniprobing-3_w"
    lr_mult: 0
  }
  param {
    name: "aniprobing-3_b"
    lr_mult: 0
  }
  convolution_param {
    num_output: 1
    axis: 1
    kernel_size: 5
    kernel_size: 1
    kernel_size: 1
    stride: 5
    stride: 1
    stride: 1
    weight_filler {
        type: "gaussian"
        std: 0.63
    }
    bias_filler {
        type: "constant"
        value: 0
    }
  }
}

layer {
  name: "relu-3_19"
  type: "ReLU"
  bottom: "aniprobing-3_19"
  top: "aniprobing-3_19"
}

layer {
  name: "reshape"
  type: "Reshape"
  bottom: "aniprobing-3_19"
  top: "aniprobing-3-rs_19"
  reshape_param {
    shape {
      dim: 0
      dim: 1
      dim: 30
      dim: 30
    }
  }
}
####################
layer {
  name: "conv1_19"
  type: "Convolution"
  bottom: "aniprobing-3-rs_19"
  top: "conv1_19"
  param {
    name: "conv1_w"
    lr_mult: 0
  }
  param {
    name: "conv1_b"
    lr_mult: 0
  }
  convolution_param {
    num_output: 128
    pad: 3
    kernel_size: 5
    weight_filler {
      type: "gaussian"
      std: 0.28
    }
    bias_filler {
      type: "constant"
    }
  }
}
layer {
  name: "relu1_19"
  type: "ReLU"
  bottom: "conv1_19"
  top: "conv1_19"
}
layer {
  name: "cccp11_19"
  type: "Convolution"
;  bottom: "conv1_19"
  top: "cccp11_19"
  param {
    name: "cccp11_w"
    lr_mult: 0
  }
  param {
    name: "cccp11_b"
    lr_mult: 0
  }
  convolution_param {
    num_output: 96
    kernel_size: 1
    group: 1
    weight_filler {
      type: "gaussian"
      std: 0.1
    }
    bias_filler {
      type: "constant"
      value: 0
    }
  }
}
layer {
  name: "relu_cccp11_19"
  type: "ReLU"
  bottom: "cccp11_19"
  top: "cccp11_19"
}
layer {
  name: "cccp12_19"
  type: "Convolution"
  bottom: "cccp11_19"
  top: "cccp12_19"
  param {
    name: "cccp12_w"
    lr_mult: 0
  }
  param {
    name: "cccp12_b"
    lr_mult: 0
  }
  convolution_param {
    num_output: 96
    kernel_size: 1
    group: 1
    weight_filler {
      type: "gaussian"
      std: 0.11
    }
    bias_filler {
      type: "constant"
      value: 0
    }
  }
}
layer {
  name: "relu_cccp12_19"
  type: "ReLU"
  bottom: "cccp12_19"
  top: "cccp12_19"
}
layer {
  name: "pool1_19"
  type: "Pooling"
  bottom: "cccp12_19"
  top: "pool1_19"
  pooling_param {
    pool: MAX
    kernel_size: 3
    stride: 2
  }
}
layer {
  name: "drop1_19"
  type: "Dropout"
  bottom: "pool1_19"
  top: "pool1_19"
  dropout_param {
    dropout_ratio: 0.5
  }
}
layer {
  name: "conv2_19"
  type: "Convolution"
  bottom: "pool1_19"
  top: "conv2_19"
  param {
    name: "conv2_w"
    lr_mult: 0
  }
  param {
    name: "conv2_b"
    lr_mult: 0
  }
  convolution_param {
    num_output: 128
    pad: 2
    kernel_size: 5
    weight_filler {
      type: "gaussian"
      std: 0.03
    }
    bias_filler {
      type: "constant"
    }
  }
}
layer {
  name: "relu2_19"
  type: "ReLU"
  bottom: "conv2_19"
  top: "conv2_19"
}
layer {
  name: "cccp21_19"
  type: "Convolution"
  bottom: "conv2_19"
  top: "cccp21_19"
  param {
    name: "cccp21_w"
    lr_mult: 0
  }
  param {
    name: "cccp21_b"
    lr_mult: 0
  }
  convolution_param {
    num_output: 96
    kernel_size: 1
    group: 1
    weight_filler {
      type: "gaussian"
      std: 0.1
    }
    bias_filler {
      type: "constant"
      value: 0
    }
  }
}
layer {
  name: "relu_cccp21_19"
  type: "ReLU"
  bottom: "cccp21_19"
  top: "cccp21_19"
}
layer {
  name: "cccp22_19"
  type: "Convolution"
  bottom: "cccp21_19"
  top: "cccp22_19"
  param {
    name: "cccp22_w"
    lr_mult: 0
  }
  param {
    name: "cccp22_b"
    lr_mult: 0
  }
  convolution_param {
    num_output: 96
    kernel_size: 1
    group: 1
    weight_filler {
      type: "gaussian"
      std: 0.1
    }
    bias_filler {
      type: "constant"
      value: 0
    }
  }
}
layer {
  name: "relu_cccp22_19"
  type: "ReLU"
  bottom: "cccp22_19"
  top: "cccp22_19"
}
layer {
  name: "pool2_19"
  type: "Pooling"
  bottom: "cccp22_19"
  top: "pool2_19"
  pooling_param {
    pool: AVE
    kernel_size: 3
    stride: 2
  }
}
layer {
  name: "drop2_19"
  type: "Dropout"
  bottom: "pool2_19"
  top: "pool2_19"
  dropout_param {
    dropout_ratio: 0.5
  }
}
layer {
  name: "conv3_19"
  type: "Convolution"
  bottom: "pool2_19"
  top: "conv3_19"
  param {
    name: "conv3_w"
    lr_mult: 0
  }
  param {
    name: "conv3_b"
    lr_mult: 0
  }
  convolution_param {
    num_output: 128
    pad: 1
    kernel_size: 3
    weight_filler {
      type: "gaussian"
      std: 0.03
    }
    bias_filler {
      type: "constant"
    }
  }
}
layer {
  name: "relu3_19"
  type: "ReLU"
  bottom: "conv3_19"
  top: "conv3_19"
}
layer {
  name: "cccp31_19"
  type: "Convolution"
  bottom: "conv3_19"
  top: "cccp31_19"
  param {
    name: "cccp31_w"
    lr_mult: 0
  }
  param {
    name: "cccp31_b"
    lr_mult: 0
  }
  convolution_param {
    num_output: 128
    kernel_size: 1
    group: 1
    weight_filler {
      type: "gaussian"
      std: 0.1
    }
    bias_filler {
      type: "constant"
      value: 0
    }
  }
}
# -> conv-out: 128 x 5 x 1 x 30 x 30
layer {
  name: "aniprobing-1_20"
  type: "Convolution"
  bottom: "data_20"
  top: "aniprobing-1_20"
  param {
    name: "aniprobing-1_w"
    lr_mult: 0
  }
  param {
    name: "aniprobing-1_b"
    lr_mult: 0
  }
  convolution_param {
    num_output: 5
    axis: 1
    kernel_size: 30
    kernel_size: 1
    kernel_size: 1
    stride: 30
    stride: 1
    stride: 1
    weight_filler {
        type: "gaussian"
        std: 0.25
    }
    bias_filler {
        type: "constant"
        value: 0
    }
  }
}

layer {
  name: "relu-1_20"
  type: "ReLU"
  bottom: "aniprobing-1_20"
  top: "aniprobing-1_20"
}

# -> conv-out: 128 x 1 x 5 x 30 x 30
layer {
  name: "reshape"
  type: "Reshape"
  bottom: "aniprobing-1_20"
  top: "aniprobing-1-rs_20"
  reshape_param {
    shape {
      dim: 0
      dim: 1
      dim: 5
      dim: 30
      dim: 30
    }
  }
}

# -> conv-out: 128 x 5 x 1 x 30 x 30
layer {
  name: "aniprobing-2_20"
  type: "Convolution"
  bottom: "aniprobing-1-rs_20"
  top: "aniprobing-2_20"
  param {
    name: "aniprobing-2_w"
    lr_mult: 0
  }
  param {
    name: "aniprobing-2_b"
    lr_mult: 0
  }
  convolution_param {
    num_output: 5
    axis: 1
    kernel_size: 5
    kernel_size: 1
    kernel_size: 1
    stride: 5
    stride: 1
    stride: 1
    weight_filler {
        type: "gaussian"
        std: 0.45
    }
    bias_filler {
        type: "constant"
        value: 0
    }
  }
}
layer {
  name: "relu-2_20"
  type: "ReLU"
  bottom: "aniprobing-2_20"
  top: "aniprobing-2_20"
}
layer {
  name: "reshape"
  type: "Reshape"
  bottom: "aniprobing-2_20"
  top: "aniprobing-2-rs_20"
  reshape_param {
    shape {
      dim: 0
      dim: 1
      dim: 5
      dim: 30
      dim: 30
    }
  }
}

# -> conv-out: 128 x 1 x 1 x 30 x 30
layer {
  name: "aniprobing-3_20"
  type: "Convolution"
  bottom: "aniprobing-2-rs_20"
  top: "aniprobing-3_20"
  param {
    name: "aniprobing-3_w"
    lr_mult: 0
  }
  param {
    name: "aniprobing-3_b"
    lr_mult: 0
  }
  convolution_param {
    num_output: 1
    axis: 1
    kernel_size: 5
    kernel_size: 1
    kernel_size: 1
    stride: 5
    stride: 1
    stride: 1
    weight_filler {
        type: "gaussian"
        std: 0.63
    }
    bias_filler {
        type: "constant"
        value: 0
    }
  }
}

layer {
  name: "relu-3_20"
  type: "ReLU"
  bottom: "aniprobing-3_20"
  top: "aniprobing-3_20"
}

layer {
  name: "reshape"
  type: "Reshape"
  bottom: "aniprobing-3_20"
  top: "aniprobing-3-rs_20"
  reshape_param {
    shape {
      dim: 0
      dim: 1
      dim: 30
      dim: 30
    }
  }
}
####################
layer {
  name: "conv1_20"
  type: "Convolution"
  bottom: "aniprobing-3-rs_20"
  top: "conv1_20"
  param {
    name: "conv1_w"
    lr_mult: 0
  }
  param {
    name: "conv1_b"
    lr_mult: 0
  }
  convolution_param {
    num_output: 128
    pad: 3
    kernel_size: 5
    weight_filler {
      type: "gaussian"
      std: 0.28
    }
    bias_filler {
      type: "constant"
    }
  }
}
layer {
  name: "relu1_20"
  type: "ReLU"
  bottom: "conv1_20"
  top: "conv1_20"
}
layer {
  name: "cccp11_20"
  type: "Convolution"
;  bottom: "conv1_20"
  top: "cccp11_20"
  param {
    name: "cccp11_w"
    lr_mult: 0
  }
  param {
    name: "cccp11_b"
    lr_mult: 0
  }
  convolution_param {
    num_output: 96
    kernel_size: 1
    group: 1
    weight_filler {
      type: "gaussian"
      std: 0.1
    }
    bias_filler {
      type: "constant"
      value: 0
    }
  }
}
layer {
  name: "relu_cccp11_20"
  type: "ReLU"
  bottom: "cccp11_20"
  top: "cccp11_20"
}
layer {
  name: "cccp12_20"
  type: "Convolution"
  bottom: "cccp11_20"
  top: "cccp12_20"
  param {
    name: "cccp12_w"
    lr_mult: 0
  }
  param {
    name: "cccp12_b"
    lr_mult: 0
  }
  convolution_param {
    num_output: 96
    kernel_size: 1
    group: 1
    weight_filler {
      type: "gaussian"
      std: 0.11
    }
    bias_filler {
      type: "constant"
      value: 0
    }
  }
}
layer {
  name: "relu_cccp12_20"
  type: "ReLU"
  bottom: "cccp12_20"
  top: "cccp12_20"
}
layer {
  name: "pool1_20"
  type: "Pooling"
  bottom: "cccp12_20"
  top: "pool1_20"
  pooling_param {
    pool: MAX
    kernel_size: 3
    stride: 2
  }
}
layer {
  name: "drop1_20"
  type: "Dropout"
  bottom: "pool1_20"
  top: "pool1_20"
  dropout_param {
    dropout_ratio: 0.5
  }
}
layer {
  name: "conv2_20"
  type: "Convolution"
  bottom: "pool1_20"
  top: "conv2_20"
  param {
    name: "conv2_w"
    lr_mult: 0
  }
  param {
    name: "conv2_b"
    lr_mult: 0
  }
  convolution_param {
    num_output: 128
    pad: 2
    kernel_size: 5
    weight_filler {
      type: "gaussian"
      std: 0.03
    }
    bias_filler {
      type: "constant"
    }
  }
}
layer {
  name: "relu2_20"
  type: "ReLU"
  bottom: "conv2_20"
  top: "conv2_20"
}
layer {
  name: "cccp21_20"
  type: "Convolution"
  bottom: "conv2_20"
  top: "cccp21_20"
  param {
    name: "cccp21_w"
    lr_mult: 0
  }
  param {
    name: "cccp21_b"
    lr_mult: 0
  }
  convolution_param {
    num_output: 96
    kernel_size: 1
    group: 1
    weight_filler {
      type: "gaussian"
      std: 0.1
    }
    bias_filler {
      type: "constant"
      value: 0
    }
  }
}
layer {
  name: "relu_cccp21_20"
  type: "ReLU"
  bottom: "cccp21_20"
  top: "cccp21_20"
}
layer {
  name: "cccp22_20"
  type: "Convolution"
  bottom: "cccp21_20"
  top: "cccp22_20"
  param {
    name: "cccp22_w"
    lr_mult: 0
  }
  param {
    name: "cccp22_b"
    lr_mult: 0
  }
  convolution_param {
    num_output: 96
    kernel_size: 1
    group: 1
    weight_filler {
      type: "gaussian"
      std: 0.1
    }
    bias_filler {
      type: "constant"
      value: 0
    }
  }
}
layer {
  name: "relu_cccp22_20"
  type: "ReLU"
  bottom: "cccp22_20"
  top: "cccp22_20"
}
layer {
  name: "pool2_20"
  type: "Pooling"
  bottom: "cccp22_20"
  top: "pool2_20"
  pooling_param {
    pool: AVE
    kernel_size: 3
    stride: 2
  }
}
layer {
  name: "drop2_20"
  type: "Dropout"
  bottom: "pool2_20"
  top: "pool2_20"
  dropout_param {
    dropout_ratio: 0.5
  }
}
layer {
  name: "conv3_20"
  type: "Convolution"
  bottom: "pool2_20"
  top: "conv3_20"
  param {
    name: "conv3_w"
    lr_mult: 0
  }
  param {
    name: "conv3_b"
    lr_mult: 0
  }
  convolution_param {
    num_output: 128
    pad: 1
    kernel_size: 3
    weight_filler {
      type: "gaussian"
      std: 0.03
    }
    bias_filler {
      type: "constant"
    }
  }
}
layer {
  name: "relu3_20"
  type: "ReLU"
  bottom: "conv3_20"
  top: "conv3_20"
}
layer {
  name: "cccp31_20"
  type: "Convolution"
  bottom: "conv3_20"
  top: "cccp31_20"
  param {
    name: "cccp31_w"
    lr_mult: 0
  }
  param {
    name: "cccp31_b"
    lr_mult: 0
  }
  convolution_param {
    num_output: 128
    kernel_size: 1
    group: 1
    weight_filler {
      type: "gaussian"
      std: 0.1
    }
    bias_filler {
      type: "constant"
      value: 0
    }
  }
}


layer {
  name: "eltwise-max"
  type: "Eltwise"
  bottom: "cccp31"
  bottom: "cccp31_2"
  bottom: "cccp31_3"
  bottom: "cccp31_4"
  bottom: "cccp31_5"
  bottom: "cccp31_6"
  bottom: "cccp31_7"
  bottom: "cccp31_8"
  bottom: "cccp31_9"
  bottom: "cccp31_10"
  bottom: "cccp31_11"
  bottom: "cccp31_12"
  bottom: "cccp31_13"
  bottom: "cccp31_14"
  bottom: "cccp31_15"
  bottom: "cccp31_16"
  bottom: "cccp31_17"
  bottom: "cccp31_18"
  bottom: "cccp31_19"
  bottom: "cccp31_20"
  top: "cccp31_combined"
  eltwise_param {
    operation: MAX
  }
}


layer {
  name: "relu_cccp31"
  type: "ReLU"
  bottom: "cccp31_combined"
  top: "cccp31_combined"
}
layer {
  name: "cccp32"
  type: "Convolution"
  bottom: "cccp31_combined"
  top: "cccp32"
  param {
    lr_mult: 1
    decay_mult: 1
  }
  param {
    lr_mult: 1
    decay_mult: 0
  }
  convolution_param {
    num_output: 40
    kernel_size: 1
    group: 1
    weight_filler {
      type: "gaussian"
      std: 0.1
    }
    bias_filler {
      type: "constant"
      value: 0
    }
  }
}
layer {
  name: "relu_cccp32"
  type: "ReLU"
  bottom: "cccp32"
  top: "cccp32"
}
layer {
  name: "pool3"
  type: "Pooling"
  bottom: "cccp32"
  top: "pool3"
  pooling_param {
    pool: AVE
    kernel_size: 8
    stride: 1
  }
}

